Practice/checkpoint/forget_model.pth (torch, 245660 bytes, 22 tensors)

0.weight f4 [32, 3, 3, 3]
0.14032374 0.11044013 -0.14178945 -0.15020217 -0.119157426 0.07939137 -0.014067721 0.1781213
-0.08190792 0.18197192 -0.047376465 -0.0029993437 -0.25943357 -0.18311156 -0.0128696645 -0.049842447
0.123295106 0.1230927 -0.11988873 -0.18334849 -0.015054056 0.056873452 -0.12053906 0.16298957
-0.04201861 0.102434 0.1997237 0.006718173 -0.0021382943 0.16471913 -0.0792962 0.081242785
0.03976231 -0.07029945 -0.27129945 -0.16181855 -0.039843008 0.08382328 -0.02270946 0.12740707
-0.15404752 -0.23429981 0.083376534 -0.3564489 -0.34872487 -0.10047657 -0.009930814 -0.07126612
-0.0042610825 -0.02916515 0.08462363 0.32405785 0.09050717 0.013557708 0.044999335 -0.22702968
-0.06977902 -0.16999653 -0.13129663 -0.043791078 0.18005411 0.27128765 0.14566348 0.006097459
0.08657059 -0.06783101 -0.067171514 0.028959159 0.13143975 0.07342555 -0.1628718 -0.035635624
0.10203924 0.2343998 0.22683252 0.069896355 0.027481457 -0.11795241 -0.16299301 -0.21115386
-0.190739 0.12364179 0.21925804 -0.14592525 0.019868905 -0.053939193 -0.10020618 -0.10281208
0.06774798 -0.0068924986 0.12840503 0.22455557 0.15502502 0.07920138 -0.22812328 -0.27831796
0.045413695 0.005891567 -0.08644618 -0.027814329 0.28185377 0.1736944 -0.08086156 -0.092523545
-0.29680815 0.006280914 -0.09406171 0.031025533 -0.016867325 -0.0031412537 -0.040987525 0.11614599
-0.25697058 0.19775353 0.14086848 -0.21717168 0.07309338 0.00044734258 -0.026581991 0.053653713
0.1321618 -0.11064717 -0.03876165 0.17251986 -0.21585254 0.0354229 0.024216894 -0.04660096
0.017069096 -0.020868775 -0.094629146 0.120564856 -0.050863564 -0.10129525 0.1633402 -0.14580464
-0.05016851 -0.06647234 0.01434339 0.17160174 0.19599836 0.13051277 0.21954843 0.01269783
-0.13020678 -0.069514126 0.25980854 -0.059060413 -0.18652207 -0.15565579 -0.20503058 -0.26666602
-0.019183636 0.18350244 0.1637183 -0.04514061 0.13366818 -0.17732638 -0.028887916 -0.002657227
-0.05062993 0.012305193 -0.23299156 -0.21168017 -0.0044544656 -0.034168664 -0.10816131 0.15762067
-0.048397437 0.057759404 0.36976126 -0.029546637 0.21444984 0.009337383 -0.1146754 0.14651145
-0.07581428 -0.035479404 0.11154461 -0.21034709 0.09550908 -0.009310986 0.02252218 0.13442194
0.098376766 -0.044181015 0.038663313 -0.06977327 -0.24783939 0.14040676 0.23358047 0.1965569
-0.22972147 -0.08215756 -0.21220355 -0.021129409 -0.09391994 0.05125874 -0.1543382 0.0116126975
0.0123857865 0.07195647 -0.17106566 -0.13498093 0.061440032 0.25566116 0.043024693 0.07875198
0.02060012 -0.028036414 -0.0749564 -0.09385262 -0.012794259 0.042752672 0.031098232 0.053173985
0.016351223 -0.16952638 0.11161168 -0.16407989 0.08903973 0.20728117 0.08207137 0.13624145
-0.31055883 0.16331838 -0.19655225 -0.04919102 -0.14287925 0.07252985 0.049632333 0.038996235
0.07367775 0.021372957 0.19298893 -0.14782703 0.06075265 -0.16280484 0.0074001187 0.08015049
-0.05431166 0.16565081 -0.17228162 -0.0004104101 0.100626685 -0.14243211 0.199207 -0.12574373
0.10840113 0.05923457 -0.044783402 0.17086269 0.05825377 -0.17000559 -0.19106835 -0.12233038
00000000: 07b1 0f3e 6f2e e23d 4131 11be 99ce 19be
00000010: cf08 f4bd f197 a23d 4c7c 66bc 6e65 363e
00000020: 57bf a7bd d956 3a3e d30d 42bd a390 44bb
00000030: 7ad4 84be 9981 3bbe 49db 52bc 9827 4cbd
00000040: 2582 fc3d 0718 fc3d 3988 f5bd b5bf 3bbe
00000050: 4aa5 76bc 23f4 683d 2fdd f6bd bde6 263e
00000060: b51b 2cbd ebc8 d13d 5f84 4c3e 1f24 dc3b
00000070: a022 0cbb 22ac 283e 0c66 a2bd 9e62 a63d
00000080: cedd 223d 28f9 8fbd c3e7 8abe c3b3 25be
00000090: 6c32 23bd 8aab ab3d 3109 babc 0077 023e
000000a0: a2be 1dbe 4aec 6fbe 51c1 aa3d 7880 b6be
000000b0: 118c b2be a9c6 cdbd dab4 22bc f9f3 91bd
000000c0: 8da0 8bbb c1eb eebc 274f ad3d e9ea a53e
000000d0: d35b b93d 2621 5e3c 3951 383d 787a 68be
000000e0: 4ee8 8ebd 9213 2ebe a072 06be 465e 33bd
000000f0: 1b60 383e 37e6 8a3e cf28 153e 31cd c73b
00000100: ec4b b13d fcea 8abd 3891 89bd c23b ed3c
00000110: 2498 063e 2260 963d ddc7 26be a9f6 11bd
00000120: f3f9 d03d 8006 703e c946 683e d225 8f3d
00000130: cb20 e13c 0891 f1bd a4e7 26be b838 58be
00000140: 1651 43be e837 fd3d 2e85 603e 6e6d 15be
00000150: 1dc4 a23c 58ef 5cbd e638 cdbd 248f d2bd
00000160: 74bf 8a3d 78da e1bb 9c7c 033e e5f1 653e
00000170: e1be 1e3e 5534 a23d 2699 69be b17f 8ebe
00000180: b603 3a3d 0c0e c13b b20a b1bd e0da e3bc
00000190: 234f 903e f2dc 313e bf9a a5bd fc7c bdbd
000001a0: 3df7 97be 20d0 cd3b 6da3 c0bd 4229 fe3c
000001b0: 582d 8abc 7edd 4dbb 89e2 27bd f3dd ed3d
000001c0: a691 83be e77f 4a3e d43f 103e 4162 5ebe
000001d0: fbb1 953d 4e89 ea39 7ac2 d9bc ffc3 5b3d
000001e0: 6c55 073e fc9a e2bd 89c4 1ebd 0ca9 303e
000001f0: 7308 5dbe 9a17 113d 8262 c63c a6e0 3ebd
00000200: 7dd4 8b3c fef4 aabc edcc c1bd b5ea f63d
00000210: 5056 50bd e273 cfbd a742 273e d04d 15be
00000220: 7f7d 4dbd a622 88bd 8a00 6b3c 5eb8 2f3e
00000230: cbb3 483e 24a5 053e 4ed1 603e 8f0a 503c
00000240: ed54 05be 6c5d 8ebd a005 853e 55e9 71bd
00000250: a4ff 3ebe 3b64 1fbe 89f3 51be 7388 88be
00000260: 0027 9dbc 10e8 3b3e c5a5 273e 5ce5 38bd
00000270: 50e0 083e 0c95 35be 5aa6 ecbc df24 2ebb
00000280: 5461 4fbd b89b 493c 5795 6ebe b0c2 58be
00000290: c4f6 91bb 71f4 0bbd ad83 ddbd 5067 213e
000002a0: 643c 46bd 2095 6c3d 5951 bd3e ca0b f2bc
000002b0: bd98 5b3e d3fb 183c f0da eabd 1907 163e
000002c0: 8444 9bbd da52 11bd 8071 e43d 3a65 57be
000002d0: 449a c33d 1b8d 18bc 6f80 b83c e8a5 093e
000002e0: c279 c93d 27f7 34bd 6c5d 1e3d 4ae5 8ebd
000002f0: 9cc9 7dbe cac6 0f3e b82f 6f3e 3646 493e
00000300: 1b3c 6bbe 3942 a8bd e34b 59be 9517 adbc
00000310: 1959 c0bd aff4 513d d50a 1ebe 2f43 3e3c
00000320: c1ed 4a3c ea5d 933d d62b 2fbe 7138 0abe
00000330: 8ba8 7b3d 05e6 823e a93a 303d b848 a13d
00000340: 95c1 a83c 9fac e5bc be82 99bd cd35 c0bd
00000350: 039f 51bc 6d1d 2f3d b8c1 fe3c f7cc 593d
00000360: 00f3 853c 5398 2dbe aa94 e43d 8f04 28be
00000370: 765a b63d 8441 543e 0915 a83d e182 0b3e
00000380: 9101 9fbe ef3c 273e fe44 49be 867c 49bd
00000390: f04e 12be 888a 943d 464b 4b3d 84ba 1f3d
000003a0: 5ce4 963d 5716 af3c e49e 453e f85f 17be
000003b0: c5d7 783d 50b6 26be b27c f23b f125 a43d
000003c0: e775 5ebd 5ea0 293e 986a 30be 502c d7b9
000003d0: 5d15 ce3d b9d9 11be ebfc 4b3e f7c2 00be
000003e0: 6901 de3d f39f 723d cd6e 37bd a1f6 2e3e
000003f0: 819b 6e3d f215 2ebe 6ca7 43be 5a88 fabd

0.bias f4 [32]
0.23465988 -0.07080171 0.011049073 -0.06250352 -0.057880506 -0.01033439 0.08200474 -0.10283376
-0.096077 0.04098156 0.031299252 -0.019892644 0.14074695 0.19850178 -0.13179743 -0.025638798
-0.083205774 -0.2421368 -0.20523578 0.06769309 0.021459272 0.1235072 0.15747312 -0.14558169
0.017468844 0.15482602 -0.098759346 0.17749122 0.09826774 0.2666546 0.06269486 0.0104181245
00000000: ae4a 703e 7d00 91bd 2c07 353c d801 80bd
00000010: 1c14 6dbd 9351 29bc 1af2 a73d 829a d2bd
00000020: 05c4 c4bd 48dc 273d a533 003d e6f5 a2bc
00000030: f81f 103e 0d44 4b3e e8f5 06be 7508 d2bc
00000040: ca67 aabd b6f2 77be 5429 52be ada2 8a3d
00000050: 5bcb af3c 58f1 fc3d a240 213e 5e13 15be
00000060: d21a 8f3c b68a 1e3e 5742 cabd 42c0 353e
00000070: 9940 c93d f486 883e 2a66 803d c8b0 2a3c

1.weight f4 [32]
0.9901521 0.69078255 0.97548646 0.83806866 1.3962958 0.7625282 0.8579111 1.097895
1.2450582 0.52920693 0.645008 0.9187882 0.9913095 0.888308 0.6320624 1.2563937
0.7733574 1.1240888 0.91449773 0.85751575 0.92782354 1.1007916 0.83195806 1.0468602
0.78739816 1.0680994 0.9718719 0.70409375 0.94989973 0.56481165 1.2210548 0.951667
00000000: 9c7a 7d3f 20d7 303f 7bb9 793f ab8b 563f
00000010: d2b9 b23f 0c35 433f 10a0 5b3f d387 8c3f
00000020: 115e 9f3f 1b7a 073f 3f1f 253f b435 6b3f
00000030: 76c6 7d3f 2768 633f d7ce 213f 82d1 a03f
00000040: c0fa 453f 24e2 8f3f 861c 6a3f 2786 5b3f
00000050: d885 6d3f bde6 8c3f 34fb 543f 84ff 853f
00000060: ed92 493f 7bb7 883f 99cc 783f 7d3f 343f
00000070: a12c 733f 7f97 103f 864b 9c3f 73a0 733f

1.bias f4 [32]
-0.43329847 -0.49982694 -0.32821307 -0.09357023 -0.1831914 -0.4315304 -0.24914113 -0.17013581
-0.22770181 -0.06887959 -0.13667023 -0.33247715 -0.6562454 -0.2108399 -0.22113705 -0.4316035
-0.33495837 -0.5654629 -0.3783435 -0.39934546 -0.27831113 -0.27480844 -0.025930872 -0.6135923
-0.542621 -0.46303815 -0.30825827 0.1259873 -0.059826363 0.058054116 -0.29654044 -0.22321823
00000000: 4cd9 ddbe 51e9 ffbe 8b0b a8be c0a1 bfbd
00000010: 8796 3bbe 8df1 dcbe da1e 7fbe 1538 2ebe
00000020: aa2a 69be be10 8dbd 48f3 0bbe 723a aabe
00000030: b3ff 27bf 6ae6 57be c071 62be 22fb dcbe
00000040: aa7f abbe 2dc2 10bf 3db6 c1be 0277 ccbe
00000050: cc7e 8ebe b1b3 8cbe fb6c d4bc 6314 1dbf
00000060: 36e9 0abf 5613 edbe 07d4 9dbe d102 013e
00000070: 7d0c 75bd 27ca 6d3d 26d4 97be 5293 64be

1.running_mean f4 [32]
0.22929224 -0.072629504 0.016219858 -0.054955956 -0.06055079 0.011070804 0.08177376 -0.10814373
-0.09488649 0.01881531 0.025929883 -0.019416017 0.16119124 0.19925433 -0.10880058 -0.025537308
-0.104303844 -0.24124332 -0.2086492 0.075714834 0.020767698 0.12687461 0.16084892 -0.15072432
-0.006451122 0.15419349 -0.09722727 0.17240016 0.09660329 0.23870516 0.06521203 0.01014579
00000000: 96cb 6a3e c7be 94bd 82df 843c 7f19 61bd
00000010: 1b04 78bd 5162 353c 0079 a73d 767a ddbd
00000020: d953 c2bd 9122 9a3c e86a d43c 570e 9fbc
00000030: 510f 253e 5409 4c3e d7d2 debd 9e33 d1bc
00000040: 419d d5bd 7d08 77be 23a8 55be 6110 9b3d
00000050: 0521 aa3c 6beb 013e 94b5 243e 7a57 1abe
00000060: ef63 d3bb e6e4 1d3e 171f c7bd ab89 303e
00000070: f2d7 c53d 206f 743e e38d 853d 873a 263c

1.running_var f4 [32]
0.108610965 0.78718585 0.045272205 0.28183743 0.06943246 0.11310139 0.03488379 0.06044648
0.031411976 0.14659561 0.11480863 0.023785539 0.20567773 0.025896532 0.9311159 0.01821718
0.2322205 0.105262704 0.036760088 0.058471862 0.047818583 0.05423484 0.4560042 0.0961545
0.19540185 0.05095678 0.15616274 0.18125454 0.35671675 0.055380844 0.04318176 0.00656121
00000000: 6d6f de3d 0385 493f 596f 393d ff4c 903e
00000010: 9b32 8e3d b4a1 e73d 4ee2 0e3d ba96 773d
00000020: d8a9 003d 291d 163e c920 eb3d e4d9 c23c
00000030: 2f9d 523e f724 d43c 9d5d 6e3f 323c 953c
00000040: 36cb 6d3e f993 d73d bf91 163d 3180 6f3d
00000050: 6bdd 433d 5a25 5e3d 6279 e93e a7ec c43d
00000060: 6c17 483e 0eb8 503d 20e9 1f3e ca9a 393e
00000070: 94a3 b63e 06d7 623d 5bdf 303d 6bff d63b

5.weight f4 [64, 32, 3, 3]
-0.03795736 -0.014400501 -0.041113395 0.04591929 0.023643523 0.05079768 0.19931799 0.16417737
0.05778785 0.15281832 0.08227666 0.06740436 0.042040054 0.0011988855 -0.018385313 -0.032599844
-0.106559314 -0.20236024 0.003496484 -0.02243348 0.13237295 -0.18551403 -0.13115568 -0.009418584
-0.18847229 -0.19409549 -0.08552616 0.014801887 0.06927604 0.03490227 0.04911949 0.07585815
0.08331798 -0.026420737 0.17415173 -0.21069162 -0.016290937 0.0529583 -0.019923082 -0.011645835
0.122445986 -0.09018158 -0.1428792 0.08250618 -0.073414795 -0.081333525 -0.044584494 -0.017075708
-0.0458693 0.027934778 0.048753045 -0.1065565 0.026878657 -0.030116664 -0.124759786 -0.056657698
-0.011669942 -0.09231445 -0.019309754 -0.04582407 -0.13113935 0.00050437794 -0.20495236 -0.054147188
-0.02249517 0.035310812 0.027850006 -0.003010252 -0.008184194 0.020901099 -0.004328375 -0.10450538
0.12072116 0.13997294 -0.0015870049 0.15584725 0.16947961 0.08080121 0.14770494 0.19505689
-0.11028451 -0.080501534 -0.19113928 0.0009004369 -0.036267065 -0.045837194 0.031083517 -0.014588124
0.06514929 -0.0041344077 0.051351592 0.014829329 -0.040579002 -0.059380066 -0.1426708 -0.108666226
-0.11139547 -0.08332147 -0.03347672 -0.106578104 -0.05212164 -0.13517027 -0.056293372 -0.021347746
-0.031188296 -0.12592654 -0.0099477125 -0.20957468 -0.23005709 -0.23719867 -0.21949978 -0.1084644
-0.049206883 0.014092589 -0.093929835 0.026098084 0.15214968 0.027399803 0.008088649 -0.1149787
-0.016197465 -0.047784638 -0.14126445 -0.13112085 -0.016570086 -0.004920931 -0.014494915 0.076404124
-0.017737579 0.039915204 0.050539233 0.1053497 -0.15167136 -0.072755605 -0.09895095 0.04318469
0.0764343 0.09062152 0.007839238 0.057100598 -0.06219724 -0.17124408 -0.027767597 -0.3003808
0.014116926 0.030166764 -0.008706645 -0.031478867 -0.004707324 0.021672422 -0.0749559 -0.031002572
-0.18134958 -0.072994724 -0.014407656 0.023452666 0.03390004 0.057779886 0.10757261 -0.1541117
-0.11969811 -0.105923854 -0.05752273 0.06354444 -0.04106238 -0.021017188 -0.008363053 0.027604513
-0.25139305 -0.19151215 -0.035626445 0.09733358 0.14177011 0.07425123 0.10493926 0.05896945
0.009897904 -0.0898363 0.036986195 -0.100259855 0.104159735 0.07433227 0.063583024 0.1267205
0.0747262 0.031832084 0.10112823 -0.08388983 -0.042442266 0.07476136 -0.007895001 -0.061301652
0.15149073 0.0074473806 -0.06324691 -0.0003895975 0.0689603 0.111539274 -0.09245843 0.0033483424
-0.08422631 -0.012612879 0.04371539 0.029935433 -0.24464092 -0.12205684 -0.12461463 -0.038973656
-0.09249081 -0.22810456 -0.027342629 -0.047070835 -0.17737034 -0.07250579 0.051134862 -0.091015175
-0.1302044 -0.023988867 -0.08019563 -0.12939626 0.03339756 0.060582336 -0.2337807 -0.09660534
-0.054454528 -0.042240668 -0.023480922 0.09606098 0.007788993 0.11130545 0.093632996 -0.0988091
0.052116837 0.13009337 -0.012063566 0.09157024 0.05608691 0.04449125 0.0017424552 0.048397034
0.05378525 0.12817146 0.17356749 -0.011172495 0.11197316 -0.022519257 -0.0018056999 0.015050353
0.0011777035 -0.10829153 -0.16270612 -0.32231405 -0.2227797 -0.07217792 -0.03354917 -0.07434121
00000000: 2d79 1bbd 14f0 6bbc 8566 28bd de15 3c3d
00000010: 10b0 c13c 3a11 503d 041a 4c3e 1d1e 283e
00000020: f4b2 6c3d 687c 1c3e aa80 a83d 4c0b 8a3d
00000030: 3132 2c3d ec23 9d3a cc9c 96bc 6a87 05bd
00000040: c53b dabd 8637 4fbe 4425 653b 6bc6 b7bc
00000050: c68c 073e 64f7 3dbe ad4d 06be 6850 1abc
00000060: e1fe 40be f8c0 46be 5728 afbd 9d83 723c
00000070: 99e0 8d3d aff5 0e3d 8531 493d 855b 9b3d
00000080: 9ea2 aa3d 4d70 d8bc d554 323e 8bbf 57be
00000090: 9274 85bc cdea 583d bb35 a3bc 2cce 3ebc
000000a0: f6c4 fa3d 1fb1 b8bd ed4e 12be 00f9 a83d
000000b0: 7f5a 96bd 3192 a6bd 3b9e 36bd 5be2 8bbc
000000c0: 72e1 3bbd 7ad7 e43c 46b1 473d 4b3a dabd
000000d0: a130 dc3c 39b7 f6bc 0f82 ffbd e711 68bd
000000e0: 4933 3fbc 5c0f bdbd 7d2f 9ebc 05b2 3bbd
000000f0: 6549 06be 3b38 043a 08df 51be 71c9 5dbd
00000100: ca47 b8bc 12a2 103d b225 e43c a647 45bb
00000110: ff16 06bc c838 ab3c 0bd5 8dbb eb06 d6bd
00000120: a83c f73d 1155 0f3e 0c03 d0ba 6c96 1f3e
00000130: 108c 2d3e 1b7b a53d f73f 173e febc 473e
00000140: d8dc e1bd fddd a4bd 04ba 43be 4c0b 6c3a
00000150: c68c 14bd c8bf 3bbd dca2 fe3c 0703 6fbc
00000160: fe6c 853d ed79 87bb 0c56 523d b7f6 723c
00000170: 2b36 26bd 8338 73bd 4b18 12be 668c debd
00000180: 4f23 e4bd 72a4 aabd e31e 09bd 9f45 dabd
00000190: 807d 55bd 136a 0abe e193 66bd 78e1 aebc
000001a0: 997e ffbc e3f2 00be bbfb 22bc bf9a 56be
000001b0: 1694 6bbe 35e4 72be 8dc4 60be 9522 debd
000001c0: 288d 49bd 9ae4 663c 495e c0bd a6cb d53c
000001d0: 20cd 1b3e 8d75 e03c 4186 043c f479 ebbd
000001e0: 8cb0 84bc d3b9 43bd a1a7 10be 8b44 06be
000001f0: fdbd 87bc c33f a1bb 147c 6dbc c479 9c3d
00000200: 664e 91bc 207e 233d 3a02 4f3d 95c1 d73d
00000210: bd4f 1bbe e400 95bd cca6 cabd 6ee2 303d
00000220: 9689 9c3d c797 b93d 2670 003c 51e2 693d
00000230: 88c2 7ebd 9c5a 2fbe df78 e3bc 83cb 99be
00000240: ae4a 673c 4a20 f73c 51a6 0ebc fcef 00bd
00000250: e53f 9abb 5d8a b13c 7b82 99bd 1bf9 fdbc
00000260: b4b3 39be 427e 95bd 170e 6cbc ce1f c03c
00000270: c5da 0a3d 9aaa 6c3d 074f dc3d 75cf 1dbe
00000280: 4824 f5bd 9bee d8bd f49c 6bbd 9623 823d
00000290: 0731 28bd 3d2c acbc 3005 09bc dc22 e23c
000002a0: 97b6 80be c31b 44be 09ed 11bd d456 c73d
000002b0: 2f2c 113e 0711 983d 65ea d63d f389 713d
000002c0: d12a 223c 18fc b7bd d67e 173d 0a55 cdbd
000002d0: b351 d53d 843b 983d d137 823d 05c3 013e
000002e0: 0d0a 993d 5c62 023d 511c cf3d 6ece abbd
000002f0: f1d7 2dbd 7c1c 993d 095a 01bc 7117 7bbd
00000300: 6320 1b3e 2809 f43b 9987 81bd e442 ccb9
00000310: 0f3b 8d3d b46e e43d d85a bdbd dd6f 5b3b
00000320: d87e acbd 40a6 4ebc e90e 333d 273b f53c
00000330: 2683 7abe f0f8 f9bd f535 ffbd d7a2 1fbd
00000340: d26b bdbd 3e94 69be a6fd dfbc 59cd 40bd
00000350: 92a0 35be ea7d 94bd ca72 513d 2a66 babd
00000360: 4d54 05be 4d84 c4bc 9b3d a4bd 7480 04be
00000370: e1cb 083d 2f25 783d 3564 6fbe 05d9 c5bd
00000380: b60b 5fbd 8d04 2dbd 105b c0bc 9ebb c43d
00000390: cf3a ff3b 1df4 e33d a8c2 bf3d 6d5c cabd
000003a0: 7778 553d 3237 053e 43a6 45bc 2e89 bb3d
000003b0: 63bb 653d 753c 363d 1863 e43a f83b 463d
000003c0: ec4d 5c3d 613f 033e adbb 313e d70c 37bc
000003d0: 2f52 e53d 4e7a b8bc 3cad ecba c195 763c
000003e0: 2c5d 9a3a f3c7 ddbd 6f9c 26be 5906 a5be
000003f0: 5d20 64be 04d2 93bd db6a 09bd 3440 98bd

5.bias f4 [64]
-0.0036668503 -0.010878288 -0.06978117 -0.010781324 -0.0019196874 -0.048234202 0.080473624 -0.059816115
-0.09012016 0.05483891 -0.03782551 0.090481676 -0.011882525 -0.06095948 -0.042638578 -0.039711505
-0.0085115135 0.0026405407 -0.0032457649 0.084416546 -0.031141048 -0.014840374 -0.01093296 -0.08891834
0.070819765 0.058152612 -0.040495247 -0.08902497 -0.019065998 0.06003181 0.058392335 -0.02987811
0.035234183 0.038996547 -0.0042786985 -0.08537707 -0.040011622 -0.040752362 -0.10579339 0.05669048
-0.14858465 -0.046552084 0.05794616 0.02837055 0.02843707 0.05110663 0.051293544 0.0005581669
-0.028477497 -0.0573469 -0.045885596 -0.041115858 -0.05358181 -0.013612041 -0.025967889 0.019309614
0.03301373 0.019650687 -0.09174839 -0.065124236 0.0956686 0.056207962 -0.035260852 0.091249146
00000000: 8a4f 70bb d93a 32bc 6ee9 8ebd 26a4 30bc
00000010: 059e fbba 3a91 45bd 5bcf a43d be01 75bd
00000020: eb90 b8bd c49e 603d ecee 1abd 754e b93d
00000030: ecae 42bc a6b0 79bd caa5 2ebd 88a8 22bd
00000040: e073 0bbc ec0c 2d3b e6b6 54bb 95e2 ac3d
00000050: 831b ffbc 0a25 73bc 2820 33bc d21a b6bd
00000060: f409 913d 6f31 6e3d 58de 25bd b952 b6bd
00000070: 4c30 9cbc eae3 753d cd2c 6f3d f0c2 f4bc
00000080: b851 103d d8ba 1f3d 5334 8cbb 2cda aebd
00000090: 3ae3 23bd f3eb 26bd 34aa d8bd 4734 683d
000000a0: 9326 18be 66ad 3ebd f458 6d3d 5b69 e83c
000000b0: dcf4 e83c 3055 513d 2e19 523d f251 123a
000000c0: a449 e9bc 95e4 6abd 89f2 3bbd 1a69 28bd
000000d0: 9a78 5bbd 0a05 5fbc 9cba d4bc 322f 9e3c
000000e0: 6839 073d 7afa a03c 94e6 bbbd db5f 85bd
000000f0: e6ed c33d 523a 663d af6d 10bd d5e0 ba3d

6.weight f4 [64]
0.8416873 0.82254195 0.7865159 0.8617733 0.9239979 0.85898584 0.816803 0.87498575
0.7881006 0.7922283 0.9783445 0.77407575 0.8665055 0.7940341 0.76941544 0.8125175
0.87058157 0.77079946 0.7927901 0.8469834 0.8714021 0.78921217 0.80672044 0.7337374
0.8385642 0.8500209 0.90654874 0.7070363 0.8071695 0.7634788 0.8650657 0.83661693
0.7533326 0.8093435 0.8298317 0.8181695 0.8458841 0.8196935 0.7703225 0.77625054
0.81312656 0.7931945 0.7068867 0.86110073 0.75785 0.72606707 0.7430063 0.83746177
0.80286497 0.809148 0.7727199 0.8468565 0.65716344 0.79093903 0.83592564 0.85580075
0.76225775 0.84709126 0.83619106 0.85982287 0.79912484 0.8275669 0.8461635 0.7560587
00000000: d278 573f 1c92 523f 1b59 493f 2d9d 5c3f
00000010: 208b 6c3f 7fe6 5b3f 001a 513f 11ff 5f3f
00000020: f6c0 493f 79cf 4a3f c974 7a3f d429 463f
00000030: 4ed3 5d3f d245 4b3f 69f8 443f 2601 503f
00000040: 6fde 5e3f 1d53 453f 4bf4 4a3f e7d3 583f
00000050: 3514 5f3f cf09 4a3f 3b85 4e3f 37d6 3b3f
00000060: 25ac 563f f89a 593f 9413 683f 5500 353f
00000070: a9a2 4e3f 5973 433f f274 5d3f 872c 563f
00000080: 68da 403f 2331 4f3f da6f 543f 8e73 513f
00000090: dc8b 583f 6fd7 513f db33 453f 5bb8 463f
000000a0: 1029 503f cb0e 4b3f 87f6 343f 1971 5c3f
000000b0: 7502 423f 88df 393f a935 3e3f e563 563f
000000c0: 8f88 4d3f 5324 4f3f f9d0 453f 96cb 583f
000000d0: dd3b 283f fb7a 4a3f 39ff 553f c215 5b3f
000000e0: 5323 433f f9da 583f 9e10 563f 5a1d 5c3f
000000f0: 7293 4c3f 6ddb 533f 2c9e 583f 108d 413f

6.bias f4 [64]
-0.6015815 -0.6113748 -0.62826806 -0.6268417 -0.6302068 -0.73884666 -0.5995941 -0.62431955
-0.5116188 -0.45001382 -0.6974982 -0.53195494 -0.5832651 -0.5435024 -0.5349307 -0.59040785
-0.59595597 -0.55695015 -0.47389835 -0.52511585 -0.5509769 -0.5479414 -0.6838355 -0.4891791
-0.6200972 -0.6141312 -0.7492376 -0.47191572 -0.5296672 -0.54812235 -0.4349568 -0.50591546
-0.4572521 -0.6324109 -0.568203 -0.59927535 -0.6788315 -0.56642634 -0.69371885 -0.5132833
-0.58060473 -0.60714275 -0.48430753 -0.56666565 -0.42147 -0.47087306 -0.42846337 -0.5570817
-0.6322791 -0.65357697 -0.57620496 -0.59175485 -0.2983381 -0.58491266 -0.6678197 -0.6317158
-0.48293328 -0.56088513 -0.58753604 -0.621291 -0.55084556 -0.62371415 -0.6486538 -0.5500657
00000000: 3f01 1abf 0f83 1cbf 2dd6 20bf b378 20bf
00000010: 3c55 21bf 0e25 3dbf 007f 19bf 68d3 1fbf
00000020: 73f9 02bf 3668 e6be 3e8f 32bf 332e 08bf
00000030: dd50 15bf f922 0bbf 38f1 08bf f824 17bf
00000040: 9290 18bf 4994 0ebf cea2 f2be fe6d 06bf
00000050: d20c 0dbf e345 0cbf d80f 2fbf af75 fabe
00000060: b1be 1ebf b437 1dbf 09ce 3fbf f09e f1be
00000070: 4598 07bf bf51 0cbf a8b2 debe ad83 01bf
00000080: f21c eabe aee5 21bf c075 11bf 1c6a 19bf
00000090: e7c7 2dbf 5101 11bf 8f97 31bf 8966 03bf
000000a0: 83a2 14bf b56d 1bbf 28f7 f7be 0011 11bf
000000b0: eaca d7be 4616 f1be 8d5f dbbe e89c 0ebf
000000c0: 0bdd 21bf d250 27bf 2b82 13bf 3f7d 17bf
000000d0: c5bf 98be d6bc 15bf 3bf6 2abf 20b8 21bf
000000e0: 0843 f7be 2b96 0fbf c368 16bf ed0c 1fbf
000000f0: 3704 0dbf bbab 1fbf 2d0e 26bf 1bd1 0cbf

6.running_mean f4 [64]
-1.143712 -0.74849206 -0.4002526 -0.6433016 -1.1253635 -0.9031514 -0.7755188 -0.7864676
-0.6826856 -1.0195415 -1.4115231 -0.63486683 -0.64032525 -0.82236046 -0.59652823 -0.8099503
-0.7605663 -0.78960973 -1.117605 -1.1325104 -1.2701166 -0.8457257 -0.5211308 -0.45273766
-0.5766249 -1.062381 -1.3927203 0.20406148 -0.7358595 -0.9365146 -0.86655724 -0.74278814
-1.194237 -0.66626424 -0.9766247 -0.80048114 -0.61303467 -0.6083431 -0.63467216 -0.56146526
-0.8350512 -0.60005087 -0.30497596 -1.3914143 -0.4757372 -0.45532468 -0.77314466 -0.864086
-0.8531742 -0.767262 -0.46277362 -0.70672625 -0.50258917 -0.84231997 -0.69164175 -0.8060414
-0.69539815 -0.75134814 -0.7106888 -1.1239871 -0.5593327 -0.47440523 -1.0809699 -0.7072566
00000000: 2865 92bf 2d9d 3fbf e9ed ccbe 6aaf 24bf
00000010: e90b 90bf ee34 67bf 6688 46bf f155 49bf
00000020: 7cc4 2ebf 5680 82bf caac b4bf a286 22bf
00000030: 5bec 23bf 3786 52bf 13b6 18bf e758 4fbf
00000040: 79b4 42bf dd23 4abf ae0d 8fbf 1af6 90bf
00000050: 2e93 a2bf 7b81 58bf d468 05bf 3bcd e7be
00000060: b09d 13bf 1afc 87bf a944 b2bf 7ef5 503e
00000070: 4a61 3cbf 6cbf 6fbf b2d6 5dbf 5d27 3ebf
00000080: c2dc 98bf 4b90 2abf 1404 7abf 55ec 4cbf
00000090: d7ef 1cbf 60bc 1bbf e079 22bf 30bc 0fbf
000000a0: eac5 55bf ef9c 19bf cf25 9cbe dd19 b2bf
000000b0: d493 f3be 5120 e9be cfec 45bf bd34 5dbf
000000c0: a069 5abf 486b 44bf aaf0 ecbe 03ec 34bf
000000d0: afa9 00bf 48a2 57bf 6f0f 31bf bb58 4ebf
000000e0: 9d05 32bf 5a58 40bf b4ef 35bf cfde 8fbf
000000f0: 6e30 0fbf 3ee5 f2be 395d 8abf c50e 35bf

6.running_var f4 [64]
1.1941097 1.1980226 0.65508413 0.8547554 1.793587 0.791737 0.9193037 0.9509221
0.61357373 1.0302837 2.8312263 0.65965706 0.77478456 0.783371 0.8854882 0.70612705
1.2134178 0.83983135 1.5553541 1.3947681 1.3403014 0.7545012 0.7107498 0.72438866
0.5831319 1.5485731 2.1047826 0.6984937 0.91711795 1.0371894 1.684033 1.0576519
1.7429974 1.541612 0.8676987 0.7930473 0.6934037 0.6628392 0.51513714 0.5839766
1.2242239 0.5452706 0.76239896 1.7122933 0.6867348 0.5337984 1.3293587 0.9858046
0.9018121 0.6166651 0.72197855 0.9995527 0.42787528 0.8354447 0.77289855 1.1056807
0.9238069 0.821011 0.7746488 1.0527784 0.96274984 0.832041 1.4056196 0.7664646
00000000: 96d8 983f ce58 993f 98b3 273f 40d1 5a3f
00000010: 4294 e53f 47af 4a3f 7d57 6b3f a16f 733f
00000020: 2b13 1d3f 56e0 833f d032 3540 49df 283f
00000030: 4858 463f 008b 483f 5baf 623f bec4 343f
00000040: 4651 9b3f 30ff 563f d815 c73f c387 b23f
00000050: ff8e ab3f fe26 413f b3f3 353f 8971 393f
00000060: 2248 153f a537 c63f c2b4 0640 7cd0 323f
00000070: 3ec8 6a3f 9fc2 843f 658e d73f 2361 873f
00000080: 8a1a df3f 8b53 c53f 8121 5e3f 2605 4b3f
00000090: e882 313f d4af 293f 07e0 033f 7e7f 153f
000000a0: 5eb3 9c3f db96 0b3f 942c 433f 6d2c db3f
000000b0: dacd 2f3f 03a7 083f 6d28 aa3f b15d 7c3f
000000c0: 28dd 663f c4dd 1d3f 96d3 383f b0e2 7f3f
000000d0: 7812 db3e b4df 553f aedc 453f f286 8d3f
000000e0: 9c7e 6c3f c72d 523f 624f 463f 71c1 863f
000000f0: c676 763f a400 553f 58eb b33f 0637 443f

10.weight f4 [64, 64, 3, 3]
0.030319598 -0.03517439 -0.0027149005 -0.05907309 -0.12034369 -0.08314695 0.1548415 0.11498174
0.1397992 -0.05421711 0.15363371 0.1016696 -0.07820303 -0.009567243 0.039547276 0.022700947
0.0015339955 -0.017755419 -0.18005222 -0.14719963 -0.090725474 -0.16091925 -0.093396 -0.08455786
0.011384908 0.029103769 0.07293765 -0.008170883 -0.074481845 -0.086877204 -0.015745964 -0.09088078
-0.12444891 -0.20815231 -0.2612373 -0.3128598 -0.13315184 -0.11203658 -0.07477468 -0.037495077
-0.10014586 -0.1638987 -0.035555206 -0.097293556 -0.14856097 0.08844247 -0.02648582 -0.036843613
0.01101728 -0.068982534 -0.10253025 -0.054544266 -0.039777286 -0.057380635 -0.08243719 0.06736498
0.055596936 0.072190225 0.02660549 0.05991702 0.17109063 0.13459516 0.10576232 -0.021946896
-0.12703055 -0.12007672 -0.056666773 -0.12669687 -0.10803753 -0.044209246 0.029627854 0.039506022
-0.060179483 0.045785304 -0.065482266 -0.11026525 -0.017981052 -0.110498905 -0.041504845 0.035422217
0.06868415 0.15745063 0.1635626 0.2481287 -0.029701285 -0.10490487 -0.027123014 -0.0489315
-0.108082965 0.026711548 0.06701969 0.04218337 0.20114787 0.024822935 0.064419515 -0.049471814
-0.046857726 0.079130076 0.056482773 0.10038248 0.03504681 0.04174516 -0.0026025649 -0.05177647
-0.04242438 -0.11283752 -0.10381676 -0.09916114 0.026173903 0.015851347 0.002198952 -0.0421506
-0.0065866206 -0.047269423 0.07574505 0.062906675 0.00947678 -0.10986242 -0.196089 -0.050351635
-0.05478128 -0.1734873 -0.13797802 -0.017160261 -0.20323604 -0.2193958 0.06087677 0.093018055
-0.000984705 0.07831403 0.19425331 0.050613772 0.013840211 0.111765616 -0.03511942 0.19276902
0.10140032 0.103932135 0.10277577 0.031057876 0.06263213 -0.0009583815 0.0046126153 0.01520635
0.045930903 -0.051121674 -0.10818285 -0.05412551 -0.07051177 -0.12992719 -0.13034816 -0.066815466
-0.12676476 0.025394026 0.12875026 0.07692874 -0.11807833 -0.04959655 -0.027895937 -0.14407596
0.049610823 0.13209859 0.01945186 0.07035548 0.06550004 0.09594186 0.11431477 0.14174926
0.024111012 0.037218723 0.14023922 0.0787642 -0.039156497 0.015026956 -0.16084482 -0.23703833
-0.16507278 -0.17920542 -0.17674479 -0.09339093 -0.038059063 -0.10612209 -0.03738739 -0.011045727
-0.13623208 -0.09320509 0.057394024 -0.03532603 -0.085239515 -0.021680322 0.04775216 -0.11234411
-0.07685653 -0.053536914 -0.07301898 0.0212417 0.031192264 0.07673797 -0.08327896 -0.017312601
-0.063465744 0.023667559 0.05716712 0.029893242 0.09920917 0.11156819 0.15863968 -0.12012049
-0.08936854 -0.023724828 -0.017018998 -0.016290348 0.028652169 -0.1541384 -0.028303111 -0.040249486
-0.1118643 -0.041235454 -0.007553979 -0.013691162 0.051166534 -0.07470786 0.09264617 0.0076215486
-0.10409937 0.08928233 -0.082550585 0.12379656 -0.031024145 -0.17562042 0.12611088 -0.0026654403
-0.06540362 0.15488088 -0.17467347 -0.15871164 -0.27123198 -0.14066224 -0.14489861 -0.23212071
0.11324716 0.11408509 0.16551551 0.0946137 0.009892452 -0.0064910552 0.020481868 0.016745344
0.015306135 -0.006190866 0.036751382 0.012326098 0.08191117 0.08196746 0.014690382 -0.033764753
00000000: ce60 f83c 0513 10bd 79ec 31bb a0f6 71bd
00000010: c176 f6bd f348 aabd c58e 1e3e 8c7b eb3d
00000020: 8627 0f3e c312 5ebd 2852 1d3e 2738 d03d
00000030: e928 a0bd edbf 1cbc 53fc 213d 56f7 b93c
00000040: 5910 c93a d073 91bc 9c5f 38be 80bb 16be
00000050: 47ce b9bd 04c8 24be 6746 bfbd ac2c adbd
00000060: c487 3a3c 076b ee3c 5660 953d 2bdf 05bc
00000070: f089 98bd adec b1bd aefd 80bc b41f babd
00000080: 12df febd e125 55be e5c0 85be 292f a0be
00000090: f558 08be 6f73 e5bd 7823 99bd 7094 19bd
000000a0: 4619 cdbd 10d5 27be 56a2 11bd d841 c7bd
000000b0: 5e20 18be 5321 b53d caf8 d8bc 54e9 16bd
000000c0: d281 343c b746 8dbd 61fb d1bd cf69 5fbd
000000d0: 82ed 22bd f507 6bbd d4d4 a8bd a7f6 893d
000000e0: 9db9 633d 78d8 933d c2f3 d93c 8d6b 753d
000000f0: 6232 2f3e 50d3 093e ea99 d83d fac9 b3bc
00000100: 4c14 02be c9ea f5bd 6b1b 68bd d3bc 01be
00000110: c842 ddbd c114 35bd 1db6 f23c 11d1 213d
00000120: c37e 76bd 5f89 3b3d 911b 86bd bfd2 e1bd
00000130: 004d 93bc 404d e2bd fc00 2abd e316 113d
00000140: 47aa 8c3d bd3a 213e f47c 273e 7315 7e3e
00000150: 1c50 f3bc 5dd8 d6bd 1531 debc 666c 48bd
00000160: 9a5a ddbd 2dd2 da3c 9f41 893d 78c8 2c3d
00000170: b5f9 4d3e 7859 cb3c 61ee 833d f5a2 4abd
00000180: e3ed 3fbd f30e a23d 7b5a 673d 5495 cd3d
00000190: 3e8d 0f3d f9fc 2a3d cb8f 2abb 9013 54bd
000001a0: 30c5 2dbd 5c17 e7bd e29d d4bd ff14 cbbd
000001b0: a76a d63c afda 813c 4b1c 103b 1ca6 2cbd
000001c0: 94d4 d7bb 959d 41bd 3920 9b3d 37d5 803d
000001d0: 7f44 1b3c 8cff e0bd 8ecb 48be 843d 4ebd
000001e0: 5662 60bd a8a6 31be 1c4a 0dbe ad93 8cbc
000001f0: 1c1d 50be 4ba9 60be ec59 793d 4080 be3d
00000200: 3811 81ba 1b63 a03d 57ea 463e 6350 4f3d
00000210: 0dc2 623c 5fe5 e43d 62d9 0fbd 3e65 453e
00000220: f9aa cf3d 5fda d43d 1a7c d23d 166d fe3c
00000230: 4645 803d e53b 7bba 6c25 973b 0e24 793c
00000240: 0b22 3c3d f664 51bd f88e ddbd b6b2 5dbd
00000250: 7a68 90bd a20b 05be fd79 05be 8cd6 88bd
00000260: 9fce 01be 2207 d03c 1cd7 033e d18c 9d3d
00000270: 0dd3 f1bd c125 4bbd 0586 e4bc a688 13be
00000280: b834 4b3d da44 073e 8259 9f3c 8916 903d
00000290: e324 863d 2a7d c43d dd1d ea3d b826 113e
000002a0: 7584 c53c a972 183d df9a 0f3e 204f a13d
000002b0: 9062 20bd 9f33 763c 81b4 24be 2dba 72be
000002c0: d708 29be a081 37be 96fc 34be be43 bfbd
000002d0: d2e3 1bbd 8a56 d9bd 8523 19bd 23f9 34bc
000002e0: 6c80 0bbe 4fe2 bebd ff15 6b3d 07b2 10bd
000002f0: 0e92 aebd ee9a b1bc c597 433d ab14 e6bd
00000300: f566 9dbd 8649 5bbd fa8a 95bd 1303 ae3c
00000310: eb86 ff3c cc28 9d3d 298e aabd 28d3 8dbc
00000320: 54fa 81bd 78e2 c13c 1228 6a3d ace2 f43c
00000330: 2d2e cb3d dd7d e43d 7172 223e bb01 f6bd
00000340: da06 b7bd 925a c2bc 6d6b 8bbc 5673 85bc
00000350: f4b7 ea3c 75d6 1dbe eddb e7bc a5dc 24bd
00000360: 1c19 e5bd 82e6 28bd 5e87 f7bb e550 60bc
00000370: 0094 513d 6f00 99bd 46bd bd3d 2fbe f93b
00000380: 0d32 d5bd a7d9 b63d 4810 a9bd 0d89 fd3d
00000390: 5926 febc d7d5 33be 3623 013e abae 2ebb
000003a0: 55f2 85bd 1899 1e3e 9add 32be 4e85 22be
000003b0: ebde 8abe c309 10be 4d60 14be 0db1 6dbe
000003c0: 21ee e73d 72a5 e93d e67c 293e d4c4 c13d
000003d0: f313 223c ebb2 d4bb 97c9 a73c 882d 893c
000003e0: 95c6 7a3c c0dc cabb 9e88 163d 67f3 493c
000003f0: 0bc1 a73d 8ede a73d eeaf 703c e94c 0abd

10.bias f4 [64]
-0.019353608 -0.032683577 -0.004014323 0.038042672 0.01132386 0.041238602 -0.040922206 -0.058393132
0.07634458 0.053554498 -0.021725759 0.01274093 0.018694354 -0.010036272 0.09995129 0.03809446
0.08519364 0.012427858 0.04212767 0.029091641 -0.010730615 -0.021689357 0.055217 0.041512594
0.044340312 -0.017859217 0.018052176 0.0458992 0.02179107 0.031227082 0.0020822992 0.029457506
0.037907567 0.066348426 0.0021825877 -0.059851352 -0.0021014318 0.03402041 0.001096062 0.022661997
-0.04940739 -0.018366016 0.028190337 -0.041976493 -0.0015460585 0.053482417 -0.005944868 -0.024399832
-0.018147426 -0.052319884 0.018318359 0.03680349 -0.0064800573 -0.013607854 0.026652811 0.010370789
0.00485603 0.017230928 0.014018169 0.001429734 0.025106352 0.0027610476 -0.0038171224 -0.019096693
00000000: 758b 9ebc 37df 05bd 958a 83bb a2d2 1b3d
00000010: b687 393c cfe9 283d 0b9e 27bd a32d 6fbd
00000020: 8c5a 9c3d f65b 5b3d 38fa b1bc 55bf 503c
00000030: e724 993c 2d6f 24bc 43b3 cc3d f008 1c3d
00000040: 017a ae3d 379e 4b3c 108e 2c3d 9851 ee3c
00000050: 76cf 2fbc e1ad b1bc 392b 623d 1c09 2a3d
00000060: 309e 353d 7e4d 92bc 28e2 933c cd00 3c3d
00000070: 3083 b23c f0cf ff3c 2f77 083b de50 f13c
00000080: f744 1b3d afe1 873d bf09 0f3b b126 75bd
00000090: 2db8 09bb fc58 0b3d bda9 8f3a a7a5 b93c
000000a0: 675f 4abd 5474 96bc 6cef e63c 8bef 2bbd
000000b0: 1da5 caba 6110 5b3d 2bcd c2bb 28e2 c7bc
000000c0: e9a9 94bc 604d 56bd 6210 963c 42bf 163d
000000d0: a956 d4bb 7af3 5ebc ff56 da3c 3eea 293c
000000e0: 551f 9f3b e027 8d3c 76ac 653c ea65 bb3a
000000f0: d6ab cd3c b1f2 343b b028 7abb ab70 9cbc

11.weight f4 [64]
1.3016411 1.3388144 1.3189738 1.340116 1.3365383 1.2636993 1.3050526 1.4183481
1.2796891 1.3301213 1.3218323 1.3633424 1.300405 1.3590696 1.3458127 1.2278177
1.3430792 1.3669226 1.297194 1.2885056 1.379857 1.3302567 1.2425278 1.3199792
1.4011594 1.2805512 1.2334037 1.4453701 1.3657001 1.3910513 1.2568182 1.3092983
1.2836779 1.3030671 1.3259579 1.3405523 1.1345248 1.2100863 1.2975374 1.2668067
1.2081027 1.3059747 1.4390417 1.3557367 1.2454168 1.4107294 1.3258786 1.3829831
1.301888 1.3514467 1.2830762 1.3555753 1.3232296 1.299598 1.2900652 1.5620995
1.2544512 1.3468854 1.2439358 1.4535415 1.2371659 1.2375904 1.2796204 1.3585547
00000000: 2d9c a63f 455e ab3f 22d4 a83f ec88 ab3f
00000010: b013 ab3f e6c0 a13f f70b a73f 6e8c b53f
00000020: dacc a33f 6a41 aa3f cd31 a93f 0182 ae3f
00000030: ac73 a63f fef5 ad3f 9743 ac3f 2129 9d3f
00000040: 05ea ab3f 52f7 ae3f 740a a63f c0ed a43f
00000050: 279f b03f da45 aa3f 270b 9f3f 14f5 a83f
00000060: 3159 b33f 1ae9 a33f 2ce0 9d3f e301 b93f
00000070: 43cf ae3f f80d b23f 6bdf a03f 1697 a73f
00000080: 8f4f a43f e7ca a63f fdb8 a93f 3897 ab3f
00000090: 1c38 913f 1ce4 9a3f b515 a63f b926 a23f
000000a0: 1ca3 9a3f 2e2a a73f 8532 b83f c888 ad3f
000000b0: d169 9f3f c892 b43f 64b6 a93f 9705 b13f
000000c0: 44a4 a63f 35fc ac3f d73b a43f 7e83 ad3f
000000d0: 965f a93f 3a59 a63f db20 a53f e0f2 c73f
000000e0: db91 a03f be66 ac3f 4a39 9f3f a60d ba3f
000000f0: 745b 9e3f 5d69 9e3f 9aca a33f 1fe5 ad3f

11.bias f4 [64]
-0.92716026 -1.014158 -1.0943547 -0.89032537 -1.0883585 -1.1633914 -0.9267596 -1.0340048
-1.0819861 -1.2740979 -1.0764446 -0.768178 -0.9929851 -1.0337678 -1.1069803 -0.9668259
-1.3047471 -0.9540787 -0.7961909 -1.0594145 -0.8010789 -1.2829285 -0.8967525 -1.0862415
-0.9815652 -0.9715386 -0.8690315 -1.2113613 -1.0673847 -1.1636988 -1.284611 -0.87794834
-0.8577271 -1.1192224 -1.3220862 -1.3236895 -0.8062511 -0.8127832 -1.01197 -0.784484
-1.3713522 -1.0298533 -0.7431369 -1.1537666 -0.9631565 -1.122756 -0.67028445 -1.2028383
-1.0354098 -1.0796602 -1.2132837 -0.94048494 -0.8658682 -1.3353987 -1.0646478 -1.4653213
-1.1918806 -0.96972036 -1.1278502 -1.0543276 -0.83275884 -1.0531774 -0.9990675 -1.0694104
00000000: 605a 6dbf eecf 81bf d113 8cbf 5dec 63bf
00000010: 554f 8bbf 02ea 94bf 1e40 6dbf 455a 84bf
00000020: 857e 8abf a415 a3bf f0c8 89bf 50a7 44bf
00000030: 4634 7ebf 8152 84bf 88b1 8dbf e781 77bf
00000040: f401 a7bf 803e 74bf 2bd3 4bbf e59a 87bf
00000050: 8213 4dbf 0037 a4bf 9291 65bf f609 8bbf
00000060: db47 7bbf c1b6 78bf d978 5ebf e30d 9bbf
00000070: 10a0 88bf 15f4 94bf 226e a4bf 39c1 60bf
00000080: 0194 5bbf ae42 8fbf 1f3a a9bf a86e a9bf
00000090: 7966 4ebf 8f12 50bf 3c88 81bf f2d3 48bf
000000a0: 7888 afbf 3cd2 83bf 383e 3ebf a0ae 93bf
000000b0: 6d91 76bf 78b6 8fbf c397 2bbf 9bf6 99bf
000000c0: 4f88 84bf 4e32 8abf e14c 9bbf 9fc3 70bf
000000d0: 8aa9 5dbf 58ee aabf 6146 88bf a68f bbbf
000000e0: 8b8f 98bf 983f 78bf 655d 90bf 35f4 86bf
000000f0: af2f 55bf 84ce 86bf e3c2 7fbf 71e2 88bf

11.running_mean f4 [64]
-0.4249838 -0.41557726 -0.44517973 -0.19045039 -0.35689497 -0.30251366 -0.35446644 -0.3310519
-0.32482818 -0.3582884 -0.46912274 -0.14002244 -0.41220325 -0.38110527 -0.21701741 -0.14117618
-0.19169812 -0.3557308 -0.18603848 -0.27745876 -0.37808108 -0.36899778 -0.3439108 -0.3255293
0.0129793165 -0.32475644 -0.49113655 -0.13790736 -0.17426433 -0.098453 -0.5078685 -0.6234689
-0.31883565 -0.28806317 -0.44422376 -0.37296668 -0.37710622 -0.2037175 -0.40967292 -0.33274823
-0.35920897 -0.3973357 -0.15024261 -0.3892011 -0.44144365 -0.16264026 -0.5100388 -0.3317006
-0.38236755 -0.3300691 -0.4332948 -0.162613 -0.5274176 -0.46428832 -0.0040524546 -0.3959598
-0.35278794 -0.4245493 -0.26788452 -0.47188896 -0.38341522 -0.17959467 -0.43538642 -0.39605296
00000000: 7a97 d9be 8bc6 d4be 99ee e3be 6d05 43be
00000010: f0ba b6be 12e3 9abe a07c b5be a27f a9be
00000020: e14f a6be 9471 b7be db30 f0be 0b62 0fbe
00000030: 4e0c d3be 3b20 c3be d039 5ebe 7d90 10be
00000040: 834c 44be 5922 b6be df80 3ebe 130f 8ebe
00000050: d893 c1be 47ed bcbe 1415 b0be c7ab a6be
00000060: 33a7 543c 7a46 a6be 4076 fbbe 9637 0dbe
00000070: 5972 32be baa1 c9bd ac03 02bf a89b 1fbf
00000080: 6d3e a3be 047d 93be 4c71 e3be 7df5 bebe
00000090: 1114 c1be 529b 50be a6c0 d1be fa5d aabe
000000a0: 3dea b7be 966f cbbe 33d9 19be 5e45 c7be
000000b0: e704 e2be 2b8b 26be e791 02bf a9d4 a9be
000000c0: aec5 c3be d1fe a8be d1d8 ddbe 0684 26be
000000d0: d704 07bf 33b7 edbe 74ca 84bb 3ebb cabe
000000e0: 9fa0 b4be 875e d9be 2928 89be 6e9b f1be
000000f0: 004f c4be aae7 37be f8ea debe 74c7 cabe

11.running_var f4 [64]
0.11797454 0.11132079 0.12378959 0.08784002 0.11942322 0.12181342 0.11605992 0.104435325
0.11077513 0.1150325 0.13946262 0.09864028 0.14502847 0.12035522 0.12185292 0.11253316
0.09909645 0.12766467 0.08961731 0.1013201 0.12140353 0.113705404 0.10552261 0.11684839
0.10294885 0.103090286 0.12552953 0.117063545 0.102560304 0.09846623 0.12432341 0.134642
0.12395837 0.1252015 0.115901224 0.09297777 0.115295656 0.11901905 0.13499656 0.1496198
0.11432579 0.12000523 0.10618615 0.13850378 0.12619928 0.110762805 0.10784404 0.1105814
0.120000586 0.11959185 0.10834153 0.08649426 0.1500374 0.13645549 0.10445633 0.13706121
0.09880137 0.14578943 0.09799418 0.12150915 0.10851624 0.09475737 0.116873376 0.12072263
00000000: a39c f13d 28fc e33d 6685 fd3d 78e5 b33d
00000010: 2994 f43d 5079 f93d d3b0 ed3d 30e2 d53d
00000020: 12de e23d 2996 eb3d 4acf 0e3e ea03 ca3d
00000030: 5882 143e cc7c f63d 068e f93d c977 e63d
00000040: 14f3 ca3d 87ba 023e 4889 b73d ea80 cf3d
00000050: 6aa2 f83d 61de e83d 3d1c d83d 354e ef3d
00000060: d9d6 d23d 0021 d33d d08a 003e 03bf ef3d
00000070: 230b d23d aaa8 c93d 469d fe3d 98df 093e
00000080: e3dd fd3d d234 003e 9f5d ed3d 216b be3d
00000090: 2120 ec3d 42c0 f33d 8a3c 0a3e ef35 193e
000000a0: a423 ea3d 4dc5 f53d 2078 d93d efd3 0d3e
000000b0: 623a 013e 9cd7 e23d 56dd dc3d 8078 e23d
000000c0: dec2 f53d 92ec f43d 2ae2 dd3d e723 b13d
000000d0: 67a3 193e fdba 0b3e 33ed d53d c659 0c3e
000000e0: 5f58 ca3d d349 153e 2cb1 c83d cad9 f83d
000000f0: c33d de3d 2710 c23d 4f5b ef3d 6d3d f73d

16.weight f4 [32, 64]
-0.18216616 -0.080033444 -0.17052573 0.34325635 -0.16037071 0.2682771 0.48238987 0.13291231
0.06287043 0.17747638 0.06389441 -0.24249072 -0.077949926 0.1434196 -0.18232948 -0.22730607
0.06634507 0.06679347 -0.13968849 0.12756415 0.04886821 -0.093355685 -0.22527076 0.119535446
-0.032061066 -0.020289207 -0.12289127 -0.06232615 -0.21319236 0.14421572 0.4748343 -0.41206345
-0.040750924 -0.08941882 0.32777315 0.05256952 -0.10120378 0.06965144 -0.22831713 -0.3390176
0.12540136 0.003306695 0.34861952 0.01904331 -0.3627652 -0.17289807 -0.22158505 0.07585401
-0.073007874 0.15662779 0.057821274 -0.09247561 -0.09552431 0.28691417 -0.37363937 0.62822753
-0.2189743 -0.062823445 0.01887183 0.34919238 -0.0026375405 0.34085712 -0.21101682 0.23363101
-0.5961345 0.24849328 -0.25280228 0.5479603 0.13330446 0.08850601 -0.4122098 -0.32628667
0.08053193 -0.5149957 -0.2443948 -0.12652518 -0.2489878 0.1451011 -0.18810977 -0.30897883
0.9004599 -0.1279587 -0.29013798 0.13663195 0.11810834 0.80684865 0.21963541 0.0132070035
0.3437179 -0.0662214 -0.25892147 -0.35175997 -0.010807982 -0.15448023 -0.19489697 -0.24629788
0.15932572 -0.08831849 0.71127486 0.3550596 0.028897393 -0.026205808 0.11285846 0.20754272
0.23092234 -0.17474113 0.19113208 -0.30964696 0.3268842 -0.28393012 -0.111529656 0.6857272
0.14216724 0.0005158601 -0.10994057 0.68183434 0.028270517 0.22552145 0.5942186 0.03934448
0.26102966 -0.30457786 0.50057167 -0.4751333 -0.5264754 0.28177568 -0.123049475 0.22623347
0.123714864 -0.13288328 0.7418098 -0.13968283 -0.46999484 0.579042 0.2950598 -0.31168526
-0.2885728 0.43547696 0.4395634 -0.030486729 0.4323529 -0.14298746 -0.3293489 -0.16246134
-0.013892498 -0.20581877 -0.27426752 0.3003811 -0.33272758 -0.11682874 0.24044111 -0.39387554
-0.4139568 0.0026812404 -0.10352116 -0.6111464 -0.46502718 0.34098443 0.060255166 0.05224961
0.681591 0.11175098 -0.1979259 -0.31878135 0.3958794 0.08034141 0.038772743 -0.05356649
0.9012981 -0.5787756 0.10942135 -0.002453719 0.28337273 0.6543799 -0.21425219 -0.5176635
0.46554688 -0.45548284 0.6754958 -0.28385904 0.15004037 -0.878426 0.18358085 -0.38184425
-0.2868226 -0.30808613 0.23434842 0.05639574 0.15647228 -0.16193758 0.2153144 -0.13819297
0.3001837 0.25023836 -0.43080473 -0.02273337 -0.7474322 0.12872455 -0.28010094 0.030712452
0.74782103 0.065787576 0.119967066 -0.10184949 0.41907197 0.21493939 0.49391076 -0.07109745
0.66870236 0.28064921 0.29668644 0.0008452327 -0.04541041 -0.38907096 0.08858607 0.31533337
-0.3872389 -0.50599486 -0.73955554 0.22186378 0.016275134 -0.33700627 0.04137068 -0.5984893
-0.41849732 0.19785407 0.3247907 0.21424426 -0.28737137 0.013070619 0.58371043 0.13944307
0.14715339 0.038549766 -0.4218546 0.7411428 0.3780954 0.2161372 0.01933753 -0.30240482
-0.21247795 0.10383407 -0.075635925 -0.25481096 0.37771204 -1.7849812e-05 -0.025953135 -0.060023993
0.5639024 0.023532761 0.39576247 -0.07173228 -0.056315653 -0.4340687 0.25887817 -0.059122108
00000000: c489 3abe 93e8 a3bd 4c9e 2ebe 4cbf af3e
00000010: 3838 24be 9e5b 893e cefb f63e 2a1a 083e
00000020: 36c2 803d 5ebc 353e 13db 823d 7d4f 78be
00000030: 36a4 9fbd 96dc 123e 94b4 3abe ecc2 68be
00000040: eddf 873d 04cb 883d 800a 0fbe 2da0 023e
00000050: 082a 483d 4431 bfbd 61ad 66be 00cf f43d
00000060: 7752 03bd 8d35 a6bc 6bae fbbd b449 7fbd
00000070: 194f 5abe 49ad 133e 7b1d f33e fbf9 d2be
00000080: 71ea 26bd 3721 b7bd e2d1 a73e 2353 573d
00000090: ed43 cfbd 6aa5 8e3d f7cb 69be b793 adbe
000000a0: 3769 003e 23b5 583b 427e b23e b700 9c3c
000000b0: 5cbc b9be 310c 31be 31e7 62be 5959 9b3d
000000c0: 2785 95bd 0963 203e 00d6 6c3d da63 bdbd
000000d0: 40a2 c3bd 6ae6 923e a94d bfbe 85d3 203f
000000e0: cd3a 60be 94a9 80bd 1999 9a3c 58c9 b23e
000000f0: 96da 2cbb d384 ae3e cb14 58be f83c 6f3e
00000100: 459c 18bf 0675 7e3e 4d6f 81be 2047 0c3f
00000110: f780 083e a442 b53d 2a0d d3be 0c0f a7be
00000120: eded a43d c2d6 03bf a142 7abe d18f 01be
00000130: a8f6 7ebe 6295 143e d99f 40be 7932 9ebe
00000140: 8a84 663f 9b07 03be f78c 94be 3fe9 0b3e
00000150: c9e2 f13d a28d 4e3f 1be8 603e 3062 583c
00000160: cbfb af3e 169f 87bd 5b91 84be e219 b4be
00000170: f613 31bc 1130 1ebe 1293 47be 8335 7cbe
00000180: 4826 233e 53e0 b4bd 1c16 363f 5fca b53e
00000190: 3aba ec3c 90ad d6bc 5622 e73d 1486 543e
000001a0: e876 6c3e 57ef 32be 21b8 433e 0c8a 9ebe
000001b0: 5e5d a73e 4a5f 91be a969 e4bd d18b 2f3f
000001c0: 4a94 113e c93a 073a 8628 e1bd b28c 2e3f
000001d0: 9297 e73c 18ef 663e b61e 183f ad27 213d
000001e0: aea5 853e a1f1 9bbe 7725 003f ac44 f3be
000001f0: 18c7 06bf e744 903e 5d01 fcbd bfa9 673e
00000200: 385e fd3d 8e12 08be 3fe7 3d3f 0409 0fbe
00000210: 2aa3 f0be 193c 143f 1412 973e 3695 9fbe
00000220: d0bf 93be d6f6 de3e 740e e13e 4ebf f9bc
00000230: 5c5d dd3e 4e6b 12be 6ba0 a8be 445c 26be
00000240: 5c9d 63bc 28c2 52be cb6c 8cbe 8dcb 993e
00000250: 455b aabe e843 efbd 3236 763e 0eaa c9be
00000260: 25f2 d3be c0b7 2f3b e702 d4bd 1774 1cbf
00000270: 0b18 eebe 8395 ae3e 1fce 763d b003 563d
00000280: bf7c 2e3f b3dd e43d 16ad 4abe 4f37 a3be
00000290: b4b0 ca3e 0a8a a43d 2bd0 1e3d 8968 5bbd
000002a0: 79bb 663f a32a 14bf 4d18 e03d 93ce 20bb
000002b0: 3b16 913e 7185 273f ed64 5bbe 9885 04bf
000002c0: 295c ee3e 0c35 e9be 4bed 2c3f f955 91be
000002d0: 2fa4 193e 87e0 60bf 9efc 3b3e 1781 c3be
000002e0: 69da 92be 77bd 9dbe 08f9 6f3e 38ff 663d
000002f0: 453a 203e f7d2 25be 617b 5c3e 7582 0dbe
00000300: aeb1 993e 3e1f 803e 7092 dcbe 553b babc
00000310: b757 3fbf 5ed0 033e 6469 8fbe ae98 fb3c
00000320: 3371 3f3f a3bb 863d 4bb1 f53d 7796 d0bd
00000330: 9a90 d63e 1219 5c3e dfe1 fc3e 8a9b 91bd
00000340: 1430 2b3f 41b1 8f3e 49e7 973e 9b92 5d3a
00000350: 4400 3abd 4f34 c7be 9d6c b53d 6073 a13e
00000360: 2d44 c6be e188 01bf 8353 3dbf 4230 633e
00000370: 6e53 853c 168c acbe 4d74 293d 9836 19bf
00000380: 4845 d6be 429a 4a3e f74a a63e d962 5b3e
00000390: 5722 93be 2626 563c 0c6e 153f 2aca 0e3e
000003a0: 61af 163e 5ce6 1d3d 53fd d7be 89bb 3d3f
000003b0: b895 c13e 1253 5d3e bd69 9e3c ced4 9abe
000003c0: d293 59be f5a6 d43d 02e7 9abd 9576 82be
000003d0: 7963 c13e 2ebc 95b7 ab9b d4bc b8db 75bd
000003e0: e85b 103f c7c7 c03c 61a1 ca3e 60e8 92bd
000003f0: 3eab 66bd 413e debe ae8b 843e 062a 72bd

16.bias f4 [32]
0.098446086 0.14184839 0.32568148 0.10435604 0.05902787 0.04029233 0.13700455 0.17498901
0.18460959 0.08892637 0.1306045 0.16916317 0.3167057 0.026592935 0.37723562 0.23497985
0.052615177 0.163923 0.15691702 0.084037185 0.16010141 0.2662701 0.08293832 0.18367569
-0.018939069 0.066388994 0.010514392 -0.071949095 0.15818354 0.022828843 0.20642844 0.14248644
00000000: 1a9e c93d b440 113e b9bf a63e 9fb8 d53d
00000010: 35c7 713d 9209 253d ec4a 0c3e 5230 333e
00000020: 4c0a 3d3e 071f b63d 30bd 053e 1c39 2d3e
00000030: 4027 a23e 6dd9 d93c 0725 c13e 8f9e 703e
00000040: 0383 573d 6edb 273e dbae 203e b01b ac3d
00000050: a0f1 233e 8e54 883e 91db a93d 7b15 3c3e
00000060: 1b26 9bbc f4f6 873d 8e44 2c3c 0c5a 93bd
00000070: defa 213e 8e03 bb3c fa61 533e f7e7 113e
