Practice/checkpoint/gold_model.pth (torch, 245602 bytes, 22 tensors)

0.weight f4 [32, 3, 3, 3]
0.016071344 0.12769663 -0.14052202 -0.11842711 -0.052943535 0.053542893 0.012433571 0.15785721
-0.02379885 0.045661107 -0.05503092 -0.037964337 -0.18145293 -0.12596105 -0.093998775 0.0010007903
0.061924547 0.09503967 -0.15871814 -0.0959977 0.072149515 0.15840244 -0.029614236 0.15649411
-0.031278104 0.027901243 0.19139597 -0.15112725 -0.12378786 -0.0596028 -0.06824894 0.1581706
-0.13044395 -0.064810865 -0.11762944 -0.15664649 -0.06337899 0.1931266 0.10494124 0.12688988
0.03556368 -0.07083858 0.07566763 -0.13995968 -0.093555585 -0.07443279 0.12966524 0.115217485
-0.05703636 0.019036794 0.15378493 0.23397577 0.120070346 0.07536759 0.107241735 -0.12797971
0.03871921 -0.1759672 -0.14013432 -0.0770646 0.1028599 0.11518408 -0.05736543 0.039596267
0.09683142 -0.024956042 -0.027281826 0.031786002 0.12618011 0.15886265 -0.15348881 -0.06323024
0.07572241 0.16652937 0.17383781 0.13892862 0.024746347 -0.17085114 -0.02769572 -0.14969249
-0.20257606 0.14918771 0.14544934 -0.17780618 0.020092987 -0.030197505 -0.0048014265 -0.09474588
0.07899559 -0.08638518 0.091435894 0.12721013 0.17519063 0.08483828 -0.17384101 -0.09255201
0.11106735 0.052168127 -0.12487977 -0.109767325 0.19622822 0.17836879 -0.116336055 -0.06766016
-0.15189184 -0.027320703 -0.16010334 -0.111695126 -0.013127063 -0.001498656 -0.07115711 0.10795794
-0.16417119 0.17600386 0.13214198 -0.17474107 -0.00035939642 0.029776586 0.018735114 0.065884784
0.103141434 -0.011493664 -0.07458114 0.12134266 -0.18294823 -0.060244605 0.0010856756 -0.06174024
-0.01666029 -0.10521466 -0.03353626 0.08216338 -0.07251265 0.008874955 0.19441287 -0.03314057
-0.022593485 -0.049052414 0.030201875 0.11282837 0.1680832 0.12816717 0.18635634 -0.01862042
-0.15055962 -0.09259117 0.13531858 -0.008403219 -0.11421711 -0.16119485 -0.17316684 -0.16831644
-0.043822687 0.17737935 0.1550331 -0.124315426 0.1639932 -0.11951639 -0.0048729554 -0.021506641
0.0026455335 -0.0008667064 -0.13493247 -0.13997929 -0.032751955 0.023161195 -0.053057246 0.088821046
-0.1497712 0.024090845 0.20026137 -0.062352337 0.19222346 0.051739357 -0.17314819 0.14933404
-0.020817595 -0.103754856 0.16504715 -0.15817082 0.03859696 -0.026940478 0.10649211 0.061928038
0.1157129 0.05219945 -0.05300387 -0.034646094 -0.18666911 0.122653745 0.17328876 0.16709848
-0.14889316 -0.0020146582 -0.13821785 -0.090035476 -0.10419744 0.07193844 -0.10675341 0.009217086
0.03749717 0.12181176 -0.14205174 -0.11834687 -0.074460186 0.16618559 -0.035939068 0.13465345
0.043599777 0.012909692 -0.031716574 -0.06741112 0.0029686443 -0.03943188 -0.0061798845 0.020491611
-0.10429802 -0.089420885 0.17916663 -0.13178082 0.0045085805 0.20322755 0.09478567 0.026656179
-0.20888565 0.10785921 -0.1487863 -0.048409108 -0.07019072 -0.033022765 -0.0061039156 0.14616793
0.01160421 0.09404123 0.12708876 -0.12287732 0.105102696 -0.14181384 -0.07689332 0.06571613
0.048293654 0.13800193 -0.115005724 0.0056842016 0.094804876 -0.15185532 0.16394906 -0.15570112
0.040373594 0.008848893 -0.082205504 0.07448096 0.1334619 -0.0908742 -0.114587225 -0.07393795
00000000: 0da8 833c e8c2 023e 01e5 0fbe ea89 f2bd
00000010: 52db 58bd cb4f 5b3d 2db6 4b3c 52a5 213e
00000020: cef5 c2bc 2407 3b3d 1a68 61bd 7e80 1bbd
00000030: ccce 39be effb 00be 6e82 c0bd f32c 833a
00000040: 98a4 7d3d 29a4 c23d 0287 22be 719a c4bd
00000050: 20c3 933d 4034 223e 8e99 f2bc fe3f 203e
00000060: 781d 00bd 2691 e43c 4efd 433e 1ac1 1abe
00000070: 7d84 fdbd 1122 74bd 1ac6 8bbd 79f7 213e
00000080: 1993 05be 8fbb 84bd b4e7 f0bd f067 20be
00000090: d8cc 81bd fbc2 453e 6feb d63d 6cef 013e
000000a0: 39ab 113d d113 91bd a1f7 9a3d 9751 0fbe
000000b0: 129a bfbd 3870 98bd f7c6 043e 25f7 eb3d
000000c0: f59e 69bd 0df3 9b3c cc79 1d3e 5897 6f3e
000000d0: 71e7 f53d 535a 9a3d 8ea1 db3d 1d0d 03be
000000e0: 0998 1e3d bf30 34be 5f7f 0fbe 0cd4 9dbd
000000f0: 36a8 d23d a2e5 eb3d 03f8 6abd b22f 223d
00000100: 8d4f c63d 9d70 ccbc 237e dfbc 0a32 023d
00000110: 5c35 013e e4ac 223e 2c2c 1dbe db7e 81bd
00000120: 5a14 9b3d ad86 2a3e 8a02 323e 4e43 0e3e
00000130: dab8 ca3c 9af3 2ebe 22e2 e2bc fd48 19be
00000140: 1970 4fbe aac4 183e acf0 143e d312 36be
00000150: 0c9a a43c c260 f7bc 4955 9dbb 210a c2bd
00000160: 71c8 a13d b7ea b0bd be42 bb3d 5f43 023e
00000170: 2c65 333e b1bf ad3d 6103 32be e98b bdbd
00000180: 4777 e33d 3fae 553d f7c0 ffbd b1cd e0bd
00000190: 0df0 483e 4fa6 363e 9941 eebd 6991 8abd
000001a0: 8989 1bbe abcf dfbc 21f2 23be 6ac0 e4bd
000001b0: e512 57bc 8d6e c4ba d2ba 91bd 0d19 dd3d
000001c0: 7e1c 28be 5b3a 343e 3a50 073e 53ef 32be
000001d0: 5f6d bcb9 07ee f33c 627a 993c 9aee 863d
000001e0: d13b d33d ec4f 3cbc ffbd 98bd 8082 f83d
000001f0: c856 3bbe 0cc3 76bd 3a4d 8e3a 55e3 7cbd
00000200: 297b 88bc c97a d7bd 515d 09bd 4645 a83d
00000210: 8381 94bd 4268 113c 2b14 473e 68be 07bd
00000220: f915 b9bc 2feb 48bd ec69 f73c 8f12 e73d
00000230: 011e 2c3e 413e 033e 32d4 3e3e da89 98bc
00000240: 4d2c 1abe 70a0 bdbd f490 0a3e a8ad 09bc
00000250: a9ea e9bd 4310 25be a652 31be 255b 2cbe
00000260: 6b7f 33bd efa2 353e ffc0 1e3e 1699 febd
00000270: d5ed 273e 02c5 f4bd 50ad 9fbb b22e b0bc
00000280: b060 2d3b af33 63ba bd2b 0abe bb56 0fbe
00000290: ea26 06bd 8cbc bd3c 8e52 59bd cfe7 b53d
000002a0: 9f5d 19be 2a5a c53c 5111 4d3e 2a65 7fbd
000002b0: 3ad6 443e a6ec 533d c24d 31be 06eb 183e
000002c0: a989 aabc 6d7d d4bd 1f02 293e 88f7 21be
000002d0: d917 1e3d 47b2 dcbc 8918 da3d 41a8 7d3d
000002e0: e3fa ec3d 17cf 553d 961a 59bd 10e9 0dbd
000002f0: 3026 3fbe e331 fb3d 9c72 313e dd1b 2b3e
00000300: 7377 18be 5b08 04bb fb88 0dbe 8564 b8bd
00000310: 7865 d5bd 7654 933d 88a1 dabd 4303 173c
00000320: a296 193d 7278 f93d 0376 11be d85f f2bd
00000330: 957e 98bd 8e2c 2a3e d834 13bd 98e2 093e
00000340: ae95 323d 2c83 533c 3de9 01bd d70e 8abd
00000350: 968d 423b 5383 21bd a180 cabb 06de a73c
00000360: 339a d5bd 4c22 b7bd 7577 373e 8df1 06be
00000370: b7bc 933b e21a 503e fd1e c23d 0f5e da3c
00000380: 1fe6 55be 4ae5 dc3d 705b 18be a148 46bd
00000390: 27c0 8fbd e142 07bd 5b03 c8bb 0cad 153e
000003a0: 961f 3e3c b098 c03d 8e23 023e 1ba7 fbbd
000003b0: 1540 d73d a637 11be 3f7a 9dbd 2e96 863d
000003c0: 91cf 453d 6150 0d3e 1f88 ebbd 8a42 ba3b
000003d0: 0f29 c23d f67f 1bbe 43e2 273e 1d70 1fbe
000003e0: c85e 253d f3fa 103c 5c5b a8bd 7989 983d
000003f0: 3caa 083e 411c babd b5ac eabd c86c 97bd

0.bias f4 [32]
0.18609665 -0.09329069 -0.0072237053 -0.08357131 -0.040692218 0.035761677 0.013868241 -0.042036653
-0.18787293 0.021501625 -0.006478835 0.031004198 0.14604755 0.20176893 -0.11563128 -0.017899003
-0.0754951 -0.17565724 -0.146638 0.1910983 0.1539287 0.08947332 0.12184145 -0.1440191
0.024040127 0.19011539 -0.11444018 0.18468934 0.04821801 0.12601717 -0.104178175 0.08023582
00000000: 1f90 3e3e 300f bfbd d5b4 ecbb 6f27 abbd
00000010: e2ac 26bd d67a 123d 9e37 633c a02e 2cbd
00000020: c361 40be 2d24 b03c 684c d4bb 84fc fd3c
00000030: 7d8d 153e 849c 4e3e 18d0 ecbd eea0 92bc
00000040: 2d9d 9abd 7edf 33be 4628 16be 46af 433e
00000050: 7c9f 1d3e ca3d b73d 0388 f93d be79 13be
00000060: cdef c43c 9cad 423e 9d5f eabd 341f 3d3e
00000070: 4080 453d a50a 013e 5e5b d5bd ad52 a43d

1.weight f4 [32]
0.9691044 0.91273457 0.96615565 1.0140319 1.1841577 0.96397644 0.9453057 1.0520802
1.038773 0.93776107 0.96680415 0.9941863 0.92357194 0.9984227 0.84635174 0.95070344
0.89316434 1.096653 0.93657905 1.0419286 1.0832125 1.0039656 0.94159025 0.9619033
0.87995154 0.8767661 1.0394703 0.98044884 1.0608226 0.9275642 1.1053706 0.9767791
00000000: 3a17 783f f9a8 693f fa55 773f cccb 813f
00000010: 7b92 973f 29c7 763f 8eff 713f 90aa 863f
00000020: 83f6 843f 1c11 703f 7a80 773f fe82 7e3f
00000030: 366f 6c3f a198 7f3f 82aa 583f 4d61 733f
00000040: 6ba6 643f 205f 8c3f a5c3 6f3f eb5d 853f
00000050: b5a6 8a3f f281 803f 0f0c 713f 4b3f 763f
00000060: 8144 613f be73 603f 5d0d 853f b2fe 7a3f
00000070: 09c9 873f d974 6d3f c97c 8d3f 320e 7a3f

1.bias f4 [32]
-6.600225e-05 -0.014464946 -0.044852044 0.06791149 -0.07744511 -0.11615252 -0.091283455 7.3407544e-05
-0.041676827 -0.036608364 -0.1002219 -0.057655454 -0.04506482 -0.055084188 -0.10249492 -0.080008276
-0.06066038 -0.057705507 -0.06775198 -0.08833024 -0.12102665 -0.19918396 -0.04167 -0.09539377
-0.0037809182 -0.14859867 -0.1412808 0.10084977 -0.055235624 -0.035963394 -0.1162908 -0.089852825
00000000: b06a 8ab8 62fe 6cbc c7b6 37bd 2e15 8b3d
00000010: 8b9b 9ebd 5fe1 edbd d2f2 babd 60f2 9938
00000020: 52b5 2abd a7f2 15bd 2441 cdbd 2028 6cbd
00000030: e495 38bd f59f 61bd dbe8 d1bd 61db a3bd
00000040: 0577 78bd 9c5c 6cbd 8dc1 8abd 7ce6 b4bd
00000050: d2dc f7bd e1f6 4bbe 29ae 2abd cf5d c3bd
00000060: 48c9 77bb 402a 18be eaab 10be 538a ce3d
00000070: c03e 62bd 5a4e 13bd df29 eebd c204 b8bd

1.running_mean f4 [32]
0.1713109 -0.16203652 -0.012922601 -0.057375345 -0.04041863 0.053720374 0.010197409 -0.03990617
-0.19568425 -0.0035990863 -0.004221474 0.032648433 0.11396401 0.208164 -0.13167454 0.0015956882
-0.08990915 -0.17445499 -0.1572754 0.19413228 0.15311006 0.088642 0.11148798 -0.15115069
0.0051464103 0.18353309 -0.11657718 0.18334787 0.04492637 0.12498925 -0.103638195 0.07988944
00000000: 206c 2f3e e7ec 25be 51b9 53bc 6902 6bbd
00000010: 018e 25bd e509 5c3d 0913 273c a774 23bd
00000020: 7461 48be a6de 6bbb 4a54 8abb 5dba 053d
00000030: f665 e93d f228 553e b1d5 06be 6926 d13a
00000040: 4a22 b8bd 54a4 32be cd0c 21be 9dca 463e
00000050: e2c8 1c3e f089 b53d cf53 e43d 3fc7 1abe
00000060: 38a3 a83b 19f0 3b3e 04c0 eebd 8bbf 3b3e
00000070: b704 383d 5dfa ff3d 4340 d4bd 139d a33d

1.running_var f4 [32]
0.08089481 0.24767242 0.104681864 0.17618151 0.023177797 0.067056365 0.06306627 0.06140507
0.036016714 0.09719976 0.08586892 0.021846227 0.30109403 0.022209011 0.2802094 0.040612984
0.18619548 0.05455375 0.07371988 0.023574192 0.026433658 0.03336554 0.19974916 0.06836104
0.068714194 0.045072258 0.14148521 0.087610655 0.1894284 0.035375692 0.017820489 0.007130998
00000000: 2eac a53d d79d 7d3e 7263 d63d ed68 343e
00000010: 5ddf bd3c d954 893d e328 813d e283 7b3d
00000020: 4386 133d ab10 c73d 0bdc af3d dcf6 b23c
00000030: ff28 9a3e acef b53c 9b77 8f3e cd59 263d
00000040: 07aa 3e3e c173 5f3d 73fa 963d aa1e c13c
00000050: 668b d83c 4eaa 083d 0b8b 4c3e df00 8c3d
00000060: 07ba 8c3d b09d 383d 80e1 103e 376d b33d
00000070: 85f9 413e 1ae6 103d 46fc 913c 26ab e93b

5.weight f4 [64, 32, 3, 3]
-0.052195862 -0.0100010475 0.012144955 0.004703932 0.034203798 0.055051852 0.04182295 0.021602754
0.030982798 -0.0012275696 -0.04211989 -0.0018183317 0.00015693196 -0.032462783 0.03543525 0.034491554
0.008889406 0.03199959 0.02760093 0.014272153 -0.014556966 -0.032989427 0.043206956 0.01936855
0.03597254 -0.028078187 -0.01874206 -0.01647509 0.00040895844 -0.051103886 0.015224177 -0.016093286
0.043717198 0.013059262 0.08131157 -0.021894405 -0.018711664 0.058120232 0.042045034 -0.07971189
-0.07327527 -0.16946077 -0.051281545 -0.1335668 -0.08271323 -0.07191819 -0.042723257 -0.011275344
-0.011531006 0.020342954 -0.013035363 -0.011417031 0.07884784 0.03332278 0.006064816 -0.0008689988
-0.019890632 -0.019271897 0.032419305 0.024768913 0.009168165 -0.047003336 0.01675735 -0.030084256
-0.06547561 -0.024802435 0.05719941 -0.040435992 -0.07496083 -0.028713502 0.0122225 -0.06892511
0.026765652 0.043396804 0.011148492 -0.0050480375 0.030328855 0.028891629 -0.06266549 -0.07687025
-0.036842227 0.018382294 -0.07104459 0.027894424 -0.01739199 -0.053658202 0.02407554 -0.019166833
0.016600944 -0.020484969 -0.03726553 -0.012714481 -0.029361116 0.05367638 0.0061129574 0.042804115
0.053835273 0.011829194 0.0588088 0.03359442 0.06284207 0.053343575 -0.035144743 -0.021167742
-0.009715521 -0.1259481 -0.040451333 -0.06989531 -0.020168744 0.029545464 -0.05451482 -0.0076322556
0.022389075 -0.0016236936 0.011432516 0.011480371 0.020931264 -0.040462356 -0.00880111 -0.008287508
0.0031092132 -0.051271196 -0.066927865 0.03905195 0.055437617 0.0028517493 -0.040672187 0.028881408
-0.028598031 -0.032731038 0.0010820532 0.03424922 -0.021956695 0.047928695 0.04339946 0.013091427
0.003948797 -0.0023655824 0.00440231 0.029278543 -0.02348671 -0.0035257472 -0.022505997 0.047541834
-0.038893346 0.030758426 -0.022714332 -0.026761172 0.02601468 0.0029918621 0.022091016 0.0075836745
-0.048074838 0.0939845 0.051999863 0.0015962296 0.031302832 0.00246224 -0.10287369 -0.08008367
-0.01878637 -0.0301272 0.080041766 0.027687015 -0.015305167 0.06679914 0.029979553 0.04663124
-0.027169824 -0.049959965 -0.02743107 0.009136891 0.03978911 0.039714877 0.022557577 0.009681274
0.045259062 -0.031324238 0.03807762 -0.07101222 0.0121685965 0.022296023 0.027283423 -0.0027257781
0.023559488 -0.026747022 -0.01660033 -0.08591637 -0.060522623 0.008820788 0.0025045918 -0.040988214
-0.0036929396 -0.020919455 -0.018059626 8.8646404e-05 -0.02825451 0.026426658 -0.027292468 0.010341413
0.013478239 -0.02950941 0.03913165 0.02103608 0.0061587733 0.0016997674 0.035508867 0.013314703
-0.03640537 0.04118312 -0.033016123 -0.023022713 0.050836865 0.0060081286 -0.028226998 -0.03483847
0.041025482 0.068903856 -0.00102491 -0.042057145 0.0023383766 -0.035771683 -0.060097005 -0.03546717
-0.014828254 -0.04376836 -0.036307875 -0.0012804037 -0.016107988 0.032297675 0.0012212365 -0.02148473
0.030302927 -0.015660234 -0.056315906 -0.008487791 -0.041189626 0.0452704 -0.0171555 -0.0058381315
0.049721614 0.023438646 0.065583885 -0.039807107 0.005529754 -0.002515647 -0.034537323 -0.033007283
0.017944135 -0.026952814 0.0100204 -0.031814363 0.11569032 0.057241198 0.07861067 -0.04982467
00000000: 54cb 55bd 6fdb 23bc a2fb 463c 7123 9a3b
00000010: 4819 0c3d 0d7e 613d 8b4e 2b3d 42f8 b03c
00000020: a3cf fd3c 67e6 a0ba e885 2cbd 1655 eeba
00000030: 1a8e 2439 b2f7 04bd 8d24 113d 0447 0d3d
00000040: dfa4 113c 0112 033d 581b e23c c0d5 693c
00000050: 5780 6ebc ec1f 07bd c7f9 303d cbaa 9e3c
00000060: f157 133d 3a04 e6bc f388 99bc c5f6 86bc
00000070: 7969 d639 4f52 51bd d46e 793c 11d6 83bc
00000080: ce10 333d 84f6 553c ae86 a63d e55b b3bc
00000090: 3449 99bc 7b0f 6e3d 6a37 2c3d fd3f a3bd
000000a0: 5811 96bd 2087 2dbe 990c 52bd bcc5 08be
000000b0: 8e65 a9bd d849 93bd 95fe 2ebd 38bc 38bc
000000c0: 8bec 3cbc 44a6 a63c 4692 55bc 800e 3bbc
000000d0: fa7a a13d 787d 083d 5dbb c63b 86cd 63ba
000000e0: aef1 a2bc 19e0 9dbc 1bca 043d 2de8 ca3c
000000f0: 1236 163c 9286 40bd b646 893c 4273 f6bc
00000100: 1418 86bd 7a2e cbbc ee49 6a3d 36a0 25bd
00000110: 1085 99bd 9438 ebbc e140 483c 9c28 8dbd
00000120: a443 db3c d9c0 313d 2aa8 363c 026a a5bb
00000130: 3874 f83c 23ae ec3c c456 80bd 266e 9dbd
00000140: e0e7 16bd 7796 963c d37f 91bd d982 e43c
00000150: a679 8ebc b4c8 5bbd 113a c53c c303 9dbc
00000160: b4fe 873c 18d0 a7bc bea3 18bd 6650 50bc
00000170: b986 f0bc c4db 5b3d 344f c83b 5e53 2f3d
00000180: 6082 5c3d 3ccf 413c 7fe1 703d 4d9a 093d
00000190: 58b3 803d cb7e 5a3d eff3 0fbd f967 adbc
000001a0: d92d 1fbc 8af8 00be 4cb0 25bd 4625 8fbd
000001b0: ec38 a5bc 5409 f23c ef4a 5fbd 0018 fabb
000001c0: 4b69 b73c 1ed2 d4ba 734f 3b3c 2a18 3c3c
000001d0: 0b78 ab3c dbbb 25bd 8832 10bc 54c8 07bc
000001e0: f1c3 4b3b bf01 52bd 7a11 89bd f0f4 1f3d
000001f0: 8e12 633d 6ae4 3a3b e197 26bd b498 ec3c
00000200: 6b46 eabc fb10 06bd aed3 8d3a e948 0c3d
00000210: 87de b3bc e150 443d a2c3 313d 6d7d 563c
00000220: e964 813b e307 1bbb 4141 903b 8ed9 ef3c
00000230: 3367 c0bc 3910 67bb 7f5e b8bc 3abb 423d
00000240: a14e 1fbd 18f9 fb3c 6813 babc 3f3a dbbc
00000250: bd1c d53c 1e13 443b 38f8 b43c 7980 f83b
00000260: 1fea 44bd f27a c03d cffd 543d 9438 d13a
00000270: 6637 003d 885d 213b 71af d2bd e802 a4bd
00000280: e0e5 99bc 51cd f6bc f0ec a33d e1cf e23c
00000290: 86c2 7abc fdcd 883d ae97 f53c 6600 3f3d
000002a0: 4093 debc d2a2 4cbd 20b7 e0bc e6b2 153c
000002b0: e8f9 223d 11ac 223d abca b83c 359e 1e3c
000002c0: 9161 393d d84d 00bd 47f7 1b3d db6e 91bd
000002d0: cb5e 473c 26a6 b63c 7c81 df3c f8a2 32bb
000002e0: d4ff c03c 921c dbbc 6afd 87bc ecf4 afbd
000002f0: 92e6 77bd 1185 103c 1424 243b 42e3 27bd
00000300: 3f05 72bb 475f abbc c8f1 93bc ade7 b938
00000310: 0176 e7bc b87c d83c 7494 dfbc 086f 293c
00000320: d5d3 5c3c b8bd f1bc 8248 203d db53 ac3c
00000330: 89cf c93b bbca de3a bf71 113d e925 5a3c
00000340: cc1d 15bd a2af 283d ea3b 07bd 219a bcbc
00000350: 513a 503d d6df c43b 4e3c e7bc c9b2 0ebd
00000360: 560a 283d 771d 8d3d 4656 86ba 1d44 2cbd
00000370: 733f 193b 5485 12bd 4728 76bd 0646 11bd
00000380: 34f2 72bc 7446 33bd 91b7 14bd 38d3 a7ba
00000390: e6f4 83bc 914a 043d e611 a03a bf00 b0bc
000003a0: d83d f83c e449 80bc 82ab 66bd 6010 0bbc
000003b0: 74b6 28bd 746d 393d b189 8cbc cc4d bfbb
000003c0: e4a8 4b3d 6702 c03c d850 863d c70c 23bd
000003d0: f032 b53b 8edd 24bb 0277 0dbd a532 07bd
000003e0: 94ff 923c 26cc dcbc 9b2c 243c c74f 02bd
000003f0: 0cef ec3d bf75 6a3d a2fe a03d f414 4cbd

5.bias f4 [64]
-0.010528287 0.033437185 -0.058020987 0.009666084 0.018776275 -0.05545824 0.00069335033 -0.056052737
-0.04674954 0.03871107 0.03133871 0.018215299 0.06916863 -0.035880227 -0.019768199 0.0035555293
0.032635618 -0.014083975 -0.01104918 0.043086972 -0.012754374 0.026988955 0.02135707 -0.024888834
0.028737005 0.035505217 -0.02673826 -0.04477497 0.036249097 0.03468258 0.03199577 0.011112125
0.026174564 0.017324543 -0.0011176476 -0.039748296 -0.022235392 0.025791515 -0.0449397 0.023256592
-0.037250828 -0.03988558 0.03494727 -0.030000098 0.024131747 0.048508637 0.008566933 0.03402686
0.005765126 -0.045184717 -0.023767276 -0.013177213 -0.03196538 -0.035617605 0.03791651 0.06100226
0.0476853 0.026265552 -0.04626913 -0.015737787 0.042375796 0.043240666 -0.015249487 0.04253265
00000000: d67e 2cbc 6ef5 083d 6aa7 6dbd 7f5e 1e3c
00000010: b4d0 993c 2e28 63bd f4c1 353a 8e97 65bd
00000020: 727c 3fbd 808f 1e3d 055d 003d 4038 953c
00000030: 48a8 8d3d 25f7 12bd ebf0 a1bc e203 693b
00000040: edac 053d 79c0 66bc 9f07 35bc f77b 303d
00000050: b9f7 50bc f117 dd3c 06f5 ae3c abe3 cbbc
00000060: de69 eb3c eb6d 113d 320a dbbc f565 37bd
00000070: ef79 143d 520f 0e3d ff0d 033d a10f 363c
00000080: 0a6c d63c 33ec 8d3c 087e 92ba 1ccf 22bd
00000090: ff26 b6bc ba48 d33c b112 38bd 9c84 be3c
000000a0: 5394 18bd 105f 23bd de24 0f3d c4c2 f5bc
000000b0: f1af c53c feb0 463d 525c 0c3c c05f 0b3d
000000c0: 62e9 bc3b 9c13 39bd 97b3 c2bc 3de5 57bc
000000d0: 21ee 02bd c4e3 11bd 584e 1b3d 81dd 793d
000000e0: a951 433d db2a d73c b384 3dbd 88ec 80bc
000000f0: 3e92 2d3d 201d 313d fcd8 79bc b736 2e3d

6.weight f4 [64]
1.024551 0.9807825 0.97284466 0.99343234 0.98267543 0.98315865 1.0037462 0.97034144
0.99438703 0.9698814 1.0506376 0.9862525 0.9919724 1.039909 0.9404461 1.0075431
0.99499756 0.99533623 0.96053654 0.9876149 1.0095032 1.0058587 0.9704252 0.9759513
0.97380745 0.95097226 0.9197397 0.94950527 0.96076536 0.9614612 0.97645867 1.0313478
0.94264495 1.0052768 0.9692722 1.0207436 0.9701919 0.98961806 0.94918776 1.0056944
0.9771814 1.000163 0.9594885 0.96645486 1.0027539 1.0313514 0.97642833 1.0353614
1.0025053 0.97832024 0.9635797 0.9869277 0.98670244 0.99542797 0.96582365 1.0021864
0.9833271 0.9848395 0.9740804 1.0081121 0.99193305 1.0245949 0.9998761 0.99442846
00000000: 7d24 833f 9014 7b3f 590c 793f 9551 7e3f
00000010: 9e90 7b3f 49b0 7b3f c17a 803f 4c68 783f
00000020: 2690 7e3f 264a 783f 4b7b 863f 0b7b 7c3f
00000030: e7f1 7d3f bd1b 853f 13c1 703f 2cf7 803f
00000040: 29b8 7e3f 5bce 7e3f b9e5 753f 55d4 7c3f
00000050: 6737 813f fabf 803f c96d 783f f2d7 793f
00000060: 724b 793f eb72 733f 1074 6b3f c712 733f
00000070: b8f4 753f 5222 763f 32f9 793f 3403 843f
00000080: 2e51 713f e9ac 803f 3922 783f baa7 823f
00000090: 7f5e 783f 9c57 7d3f f8fd 723f 98ba 803f
000000a0: 8f28 7a3f 5705 803f 0aa1 753f 9669 773f
000000b0: 3d5a 803f 5303 843f 35f7 793f b986 843f
000000c0: 1852 803f 3273 7a3f 29ad 763f 4ba7 7c3f
000000d0: 8898 7c3f 5ed4 7e3f 3840 773f a547 803f
000000e0: 53bb 7b3f 711e 7c3f 555d 793f d109 813f
000000f0: 53ef 7d3f ed25 833f e1f7 7f3f dd92 7e3f

6.bias f4 [64]
-0.27518418 -0.21347818 -0.17715724 -0.13003129 -0.05890816 -0.04974307 -0.10739868 -0.16075045
-0.073256634 -0.05101057 -0.20585096 -0.17177168 -0.14937986 -0.1578048 -0.13534077 -0.08876946
-0.22326644 -0.21113609 -0.16015022 -0.10510701 -0.09775234 -0.14829105 -0.18242808 -0.04354426
-0.16820842 -0.07001392 -0.20620733 -0.12766255 -0.18054017 -0.13014561 -0.23077048 -0.15486293
-0.16146058 -0.1394173 -0.09724568 -0.12249052 -0.15666193 -0.14195976 -0.26557475 -0.18616833
-0.10027353 -0.1848054 -0.03773858 -0.100638494 -0.17678002 -0.10626825 -0.09011798 -0.14499424
-0.090577394 -0.1887399 -0.12944308 -0.24616608 -0.09221303 -0.1295015 -0.18791778 -0.27728847
-0.056279715 -0.085786276 -0.14075918 -0.14237823 -0.10623658 -0.1349625 -0.21421261 -0.1517473
00000000: f1e4 8cbe 069a 5abe b568 35be ec26 05be
00000010: af49 71bd 64bf 4bbd d7f3 dbbd c49b 24be
00000020: 9307 96bd 76f0 50bd 98ca 52be eae4 2fbe
00000030: 09f7 18be 9597 21be c596 0abe c3cc b5bd
00000040: f59f 64be 0f34 58be 6bfe 23be 5842 d7bd
00000050: 6132 c8bd 9cd9 17be 6dce 3abe 775b 32bd
00000060: d43e 2cbe 7563 8fbd 0428 53be f9b9 02be
00000070: 86df 38be e444 05be 194f 6cbe 6394 1ebe
00000080: ec55 25be 69c3 0ebe be28 c7bd 4fdc fabd
00000090: fc6b 20be e65d 11be 6af9 87be e9a2 3ebe
000000a0: 355c cdbd a03d 3dbe c593 1abd 8e1b cebd
000000b0: d205 35be 2ba3 d9bd c78f b8bd 5f79 14be
000000c0: a480 b9bd 0845 41be ba8c 04be f612 7cbe
000000d0: 2fda bcbd 0b9c 04be 856d 40be c1f8 8dbe
000000e0: 8f85 66bd b7b0 afbd 2d23 10be 99cb 11be
000000f0: 9092 d9bd 9c33 0abe 8d5a 5bbe a563 1bbe

6.running_mean f4 [64]
-0.43879223 -0.3545485 -0.21051428 -0.2687601 -0.7224895 -0.33103544 -0.33504468 -0.43963522
-0.25999093 -0.4578925 -0.2517563 -0.13895278 0.012124107 -0.322844 -0.044040218 -0.25034565
-0.045955278 -0.30404505 -0.4757849 -0.40694526 -0.55761033 -0.40297583 -0.03933176 -0.18035544
0.010078742 -0.4699219 0.29699883 0.35859245 -0.18901208 -0.11714896 -0.17503108 -0.24303536
-0.14253826 -0.38503787 -0.3480118 -0.28414086 0.0025749214 -0.39664677 -0.2636227 -0.15697154
-0.03273344 -0.24178128 -0.18052767 -0.90958166 -0.39438745 -0.23857817 -0.35015535 -0.47220117
-0.17082562 -0.34331986 -0.16937461 -0.09486379 -0.33787897 -0.20790753 -0.007586782 -0.22780076
-0.6582546 -0.21588464 -0.1103462 -0.7526227 -0.5329495 -0.39853525 -0.46379778 -0.16813068
00000000: 60a9 e0be 6287 b5be 0e91 57be ec9a 89be
00000010: 12f5 38bf 7a7d a9be fa8a abbe de17 e1be
00000020: 881d 85be e370 eabe 34e6 80be a349 0ebe
00000030: 31a4 463c cf4b a5be 8463 34bd 4e2d 80be
00000040: 9a3b 3cbd cbab 9bbe 149a f3be 215b d0be
00000050: 8dbf 0ebf d952 cebe 571a 21bd 19af 38be
00000060: 4f21 253c 9a99 f0be 3b10 983e 6e99 b73e
00000070: 628c 41be cbeb efbd 593b 33be 43de 78be
00000080: 8df5 11be af23 c5be 9a2e b2be e97a 91be
00000090: 03c0 283b 4915 cbbe 8ef9 86be 26bd 20be
000000a0: 8013 06bd 8395 77be 3fdc 38be 58da 68bf
000000b0: 27ed c9be d64d 74be 9047 b3be 5ac4 f1be
000000c0: e9ec 2ebe 9fc7 afbe 8a70 2dbe f247 c2bd
000000d0: 79fe acbe b6e5 54be 8a9a f8bb 9a44 69be
000000e0: 6083 28bf dd10 5dbe 30fd e1bd e2ab 40bf
000000f0: 616f 08bf d00c ccbe e776 edbe 732a 2cbe

6.running_var f4 [64]
0.21025729 0.16227697 0.121025704 0.11595648 0.2549191 0.15067354 0.15103333 0.1885945
0.25680763 0.16415785 0.23552859 0.19916289 0.12796111 0.12904207 0.12802707 0.15994255
0.110285304 0.32342032 0.23955902 0.16886821 0.18893617 0.23976426 0.17592658 0.194311
0.13876054 0.13389635 0.17318207 0.26152435 0.120499 0.10767544 0.22685704 0.17200495
0.2518793 0.19943304 0.16517054 0.11851163 0.12816586 0.14659378 0.26104924 0.13185485
0.20401151 0.12824468 0.20291597 0.33966926 0.1654801 0.108267486 0.16971841 0.16507137
0.14896451 0.19418482 0.18997335 0.13503452 0.12927274 0.15802431 0.15107441 0.1450647
0.29265088 0.1305299 0.1380997 0.32445058 0.25082058 0.21893863 0.26384148 0.1660612
00000000: b04d 573e ef2b 263e 53dc f73d 977a ed3d
00000010: c284 823e 2a4a 1a3e 7ba8 1a3e eb1e 413e
00000020: 4a7c 833e ff18 283e 682e 713e 5bf1 4b3e
00000030: 3d08 033e 9b23 043e 8719 033e fbc7 233e
00000040: 43dd e13d 5997 a53e f64e 753e caeb 2c3e
00000050: 7c78 413e c384 753e 1926 343e 76f9 463e
00000060: 3e17 0e3e 201c 093e a456 313e 85e6 853e
00000070: 2ec8 f63d f184 dc3d 364d 683e 1122 303e
00000080: 53f6 803e 2d38 4c3e 7722 293e 3ab6 f23d
00000090: e93d 033e ae1c 163e 3fa8 853e f504 073e
000000a0: 65e8 503e 9352 033e 34c9 4f3e 21e9 ad3e
000000b0: 9e73 293e 58bb dd3d aaca 2d3e 7808 293e
000000c0: 278a 183e 63d8 463e 6088 423e 7d46 0a3e
000000d0: 1360 043e 20d1 213e 40b3 1a3e d78b 143e
000000e0: 56d6 953e a1a9 053e 026a 0d3e 631e a63e
000000f0: 8e6b 803e 7331 603e 3b16 873e f20b 2a3e

10.weight f4 [64, 64, 3, 3]
-0.047693778 -0.04472675 -0.076838106 0.0011723026 0.027384898 -0.015000115 0.057090707 0.05021014
0.04513046 0.018668083 0.0190711 0.033086635 -0.006080916 -0.011858647 -0.0064808093 -0.000779492
-0.010693944 -0.035392907 -0.018037768 -0.02568504 -0.021075226 -0.015010447 0.0038546743 -0.008802877
-0.017467873 0.018914748 -0.021038668 -0.032127004 -0.072634876 -0.052481245 -0.04224789 -0.04522705
-0.02131581 -0.025707949 -0.036139052 -0.040157337 -0.016523944 -0.013268228 -0.023615526 -0.014966577
0.0071499147 0.0142131355 0.016345648 -0.05486494 -0.021001283 -0.026238782 -0.022369558 -0.010186122
-0.034687255 -0.035728443 -0.024607552 -0.008651621 0.0008687768 -0.010650984 0.086719744 0.033626106
0.044101615 0.041513216 -0.015893752 -0.0046136887 -0.015652109 0.012166921 -0.02486663 -0.014157981
-0.02322286 -0.02027102 -0.022247313 -0.065605946 -0.027778769 -0.02553015 -0.032095667 -0.03270045
-0.01048213 0.028969811 -0.018626066 -0.029705616 -0.009507193 -0.009362094 0.025264354 0.005855309
0.03857103 -0.040887382 -0.013007707 -0.017772239 -0.01968734 -0.03604496 -0.017949933 -0.015012568
-0.01899338 -0.009397433 0.045792457 -0.014388895 0.026024567 0.060628626 0.06234601 0.047953915
0.07585863 0.100903325 0.13283454 0.029497622 0.06438701 0.052141953 -0.0070371735 0.012731948
0.010529627 -0.024558906 0.014420928 -0.006610597 0.04560666 0.040214006 0.06574845 0.023386816
0.044454698 0.015918272 0.01257703 0.027370531 0.019898642 0.004958524 -0.0053616357 -0.03930446
-0.008210383 -0.021950042 -0.04366812 -0.028811999 -0.017424418 -0.030643877 0.03905783 0.041235693
0.029665478 0.02466771 0.027391814 0.025875567 0.03026896 -0.0068359436 0.0074645206 0.035736088
0.024711518 0.042074654 0.013954104 0.008961285 0.0056181657 -0.009346067 0.005983177 0.01170978
-0.045761712 -0.06066271 -0.034829386 -0.040635753 -0.029056005 -0.005183934 -0.024619866 -0.007948947
-0.018924808 0.02060288 0.010210278 0.011490423 0.018814165 -0.019112606 -0.008333413 -0.03195855
-0.041675903 -0.049729444 0.019645188 -0.002862368 0.017148897 -0.013529728 -0.03245773 -0.005326968
-0.026305828 -0.044632748 -0.017368257 -0.05796868 -0.05732561 -0.032959152 -0.05429285 -0.022138199
-0.036328502 -0.01627902 0.012949511 0.012811071 0.024832847 -0.0045735813 0.013166534 -0.015647324
-0.039619185 -0.039362207 -0.00012020068 -0.0020941813 -0.015574651 0.017358396 0.019855566 0.032214697
0.026024936 0.020406634 0.009291456 -0.004105504 0.022738278 -0.0038920743 -0.008752929 -0.018263945
-0.005295922 -0.0041276193 0.032643456 0.016306955 0.03058268 -0.0022960077 0.011360659 -0.026422977
-0.013689215 -0.025336267 -0.04364929 -0.017545385 0.00029379447 -0.032994706 -0.012188202 -0.00032491572
-0.009446787 0.012719643 -0.026271721 -0.029809736 -0.012315809 -0.028374247 -0.085064024 -0.053087767
-0.059542954 0.024568997 -0.003697473 0.02375314 0.01117519 0.013474102 0.009287889 0.036954932
0.0140815005 0.023157014 -0.053210683 -0.049985997 -0.04570368 -0.032822207 -0.021291364 -0.032474965
-0.02175469 -0.032287873 -0.03347131 -0.006539338 -0.040259603 -0.022697153 0.0054249656 -0.009982409
-0.0271045 0.06259007 0.036549643 0.033939164 -0.01610214 -0.006173812 -0.0014013721 -0.029479317
00000000: 8d5a 43bd 6633 37bd 4c5d 9dbd f3a7 993a
00000010: 4b56 e03c 0bc3 75bc f2d7 693d 26a9 4d3d
00000020: b8da 383d cfed 983c ff3a 9c3c da85 073d
00000030: 6c42 c7bb c54a 42bc f85c d4bb d356 4cba
00000040: a735 2fbc 27f8 10bd f1c3 93bc 6f69 d2bc
00000050: f4a5 acbc 61ee 75bc b49e 7c3b f139 10bc
00000060: c918 8fbc 1af3 9a3c 4959 acbc 9b97 03bd
00000070: 98c1 94bd 93f6 56bd 200c 2dbd 0040 39bd
00000080: 7e9e aebc 7a99 d2bc 8b06 14bd 057c 24bd
00000090: 395d 87bc fb62 59bc 5975 c1bc 6036 75bc
000000a0: d549 ea3b 36de 683c 4fe7 853c 0fba 60bd
000000b0: e20a acbc b7f2 d6bc 5d40 b7bc b1e3 26bc
000000c0: 3914 0ebd fd57 12bd c795 c9bc 87bf 0dbc
000000d0: a0be 633a 7781 2ebc 1f9a b13d 87bb 093d
000000e0: e5a3 343d c309 2a3d 9d33 82bc 6d2e 97bb
000000f0: da38 80bc c457 473c 1ab5 cbbc e0f6 67bc
00000100: de3d bebc 690f a6bc ff3f b6bc 695c 86bd
00000110: 4d90 e3bc 9b24 d1bc bf76 03bd e8f0 05bd
00000120: 3dbd 2bbc 1952 ed3c b195 98bc 3159 f3bc
00000130: 0fc4 1bbc 7863 19bc 31f7 ce3c e4dd bf3b
00000140: a8fc 1d3d 8779 27bd 471e 55bc 1697 91bc
00000150: 5847 a1bc e1a3 13bd bd0b 93bc 46f7 75bc
00000160: 0198 9bbc b1f7 19bc df90 3b3d 66bf 6bbc
00000170: 7931 d53c b955 783d 885e 7f3d 536b 443d
00000180: c55b 9b3d 67a6 ce3d c705 083e ffa4 f13c
00000190: 56dd 833d cd92 553d 1798 e6bb a999 503c
000001a0: 7584 2c3c c22f c9bc c245 6c3c b59d d8bb
000001b0: 0dce 3a3d 71b7 243d 20a7 863d b595 bf3c
000001c0: 2116 363d 0967 823c e30f 4e3c 2a38 e03c
000001d0: 7a02 a33c 1d7b a23b a9b0 afbb b7fd 20bd
000001e0: d884 06bc 93d0 b3bc 58dd 32bd 2407 ecbc
000001f0: a7bd 8ebc de08 fbbc 1afb 1f3d c2e6 283d
00000200: 0405 f33c f013 ca3c cc64 e03c fff8 d33c
00000210: 9cf6 f73c 0d00 e0bb f098 f43b 0160 123d
00000220: cf6f ca3c 7956 2c3d c19f 643c 5bd2 123c
00000230: 9718 b83b 3f20 19bc 870e c43b 61da 3f3c
00000240: a270 3bbd 7679 78bd 42a9 0ebd ad71 26bd
00000250: dc06 eebc fddd a9bb 9aaf c9bc 4d3c 02bc
00000260: 3308 9bbc 5fc7 a83c 0349 273c 5442 3c3c
00000270: 2a20 9a3c 0a92 9cbc de88 08bc f8e6 02bd
00000280: 5ab4 2abd 1ab1 4bbd f2ee a03c 9196 3bbb
00000290: d87b 8c3c cbab 5dbc 66f2 04bd d98d aebb
000002a0: 527f d7bc d4d0 36bd e047 8ebc 9170 6dbd
000002b0: 42ce 6abd 2d00 07bd 2e62 5ebd 2b5b b5bc
000002c0: 32cd 14bd 945b 85bc 302a 543c 87e5 513c
000002d0: 416e cb3c fbdd 95bb 72b8 573c d12e 80bc
000002e0: ba47 22bd 443a 21bd 4014 fcb8 883e 09bb
000002f0: d22c 7fbc 3233 8e3c 24a8 a23c 8ff3 033d
00000300: 3f32 d53c d02b a73c 313b 183c 7787 86bb
00000310: a045 ba3c 2c12 7fbb 7268 0fbc 459e 95bc
00000320: 6a89 adbb fb40 87bb 25b5 053d 2a96 853c
00000330: 8788 fa3c 9e78 16bb 0f22 3a3c 0075 d8bc
00000340: bb48 60bc 018e cfbc 99c9 32bd 57bb 8fbc
00000350: 6d08 9a39 7525 07bd 06b1 47bc 7359 aab9
00000360: b2c6 1abc 0d66 503c cb37 d7bc 8c33 f4bc
00000370: 3fc8 49bc 1c71 e8bc 0c36 aebd 8f72 59bd
00000380: 50e3 73bd ec44 c93c 4e51 72bb f295 c23c
00000390: 2518 373c 7bc2 5c3c 3b2c 183c 0e5e 173d
000003a0: 18b6 663c c7b3 bd3c 72f3 59bd 1ebe 4cbd
000003b0: c833 3bbd 9470 06bd 3a6b aebc 7804 05bd
000003c0: e436 b2bc 4a40 04bd 3619 09bd f147 d6bb
000003d0: 41e7 24bd 61ef b9bc e9c3 b13b 428d 23bc
000003e0: 420a debc 392f 803d 14b5 153d cb03 0b3d
000003f0: a3e8 83bc b04d cabb 3fae b7ba 9c7e f1bc

10.bias f4 [64]
0.030876243 -0.029731564 0.0009456145 0.011700358 0.0038035442 0.014258185 0.021036703 -0.03388101
0.03805958 0.014114274 -0.028169012 0.027297255 0.0025524134 -0.016662322 0.013973764 -0.011783504
-0.004871267 0.014004467 0.03739443 0.03584718 0.011590881 0.011254304 0.017193064 0.02052704
-0.024326067 0.00060669315 0.037647434 0.039330043 0.018408965 0.01644138 0.031104537 0.03948642
0.0016698205 0.031776633 0.03193347 -0.01855496 0.0056023253 0.01722921 -0.008854471 0.030442476
-0.0400969 -0.021130621 0.032730665 -0.04017159 0.034767516 0.043120462 0.015188392 0.008352362
-0.01281817 5.178864e-05 0.0010721253 -0.0065486464 0.0047050472 0.012723712 0.023056459 0.036014214
0.017193044 0.023907097 0.009908276 0.015935056 0.029702842 0.017927958 -0.029293466 -0.026722094
00000000: 2df0 fc3c 9c8f f3bc 1de3 773a dcb2 3f3c
00000010: e244 793b 2a9b 693c 2a55 ac3c d0c6 0abd
00000020: 5de4 1b3d 8e3f 673c b3c2 e6bc 7e9e df3c
00000030: 6446 273b 6c7f 88bc 37f2 643c 990f 41bc
00000040: 269f 9fbb fe72 653c e72a 193d 7ed4 123d
00000050: aee7 3d3c f963 383c 78d8 8c3c 5328 a83c
00000060: 7647 c7bc 7d0a 1f3a 3234 1a3d 8a18 213d
00000070: 66ce 963c 13b0 863c f1ce fe3c 83bc 213d
00000080: e1dd da3a 3728 023d accc 023d 9200 98bc
00000090: b693 b73b 4624 8d3c 5812 11bc 8062 f93c
000000a0: a63c 24bd 201a adbc 9710 063d f78a 24bd
000000b0: 6268 0e3d 159f 303d bcd8 783c 58d8 083c
000000c0: 4d03 52bc a137 5938 8e86 8c3a 0796 d6bb
000000d0: cc2c 9a3b 1e77 503c e6e0 bc3c a483 133d
000000e0: 6dd8 8c3c d1d8 c33c 5256 223c 3c8a 823c
000000f0: 6053 f33c a7dd 923c daf8 efbc 4be8 dabc

11.weight f4 [64]
1.2323295 1.3019792 1.327439 1.3824543 1.3022773 1.2475208 1.2432418 1.2694372
1.2287624 1.2649701 1.3065101 1.1795689 1.2486204 1.2476319 1.2047939 1.2392439
1.2790244 1.2998997 1.3136945 1.2723702 1.3239719 1.2399387 1.3144193 1.2756826
1.3008934 1.3190832 1.2521797 1.3049883 1.3487197 1.2993089 1.2916332 1.316204
1.2608697 1.3254741 1.3408871 1.2581153 1.3483883 1.2309514 1.2513335 1.2634108
1.216669 1.269273 1.3087544 1.2680929 1.2748762 1.3555733 1.2738498 1.2791086
1.261337 1.2378277 1.3517075 1.3219736 1.305039 1.2830132 1.2986684 1.3563491
1.336335 1.2915938 1.225217 1.349221 1.2244917 1.2635816 1.3338866 1.3376824
00000000: f9bc 9d3f 41a7 a63f 85e9 a93f 43f4 b03f
00000010: 06b1 a63f c3ae 9f3f 8c22 9f3f eb7c a23f
00000020: 1648 9d3f 8aea a13f b93b a73f 1dfc 963f
00000030: cbd2 9f3f 67b2 9f3f b036 9a3f 8b9f 9e3f
00000040: 12b7 a33f 1d63 a63f 2427 a83f 07dd a23f
00000050: e977 a93f 50b6 9e3f e43e a83f 9149 a33f
00000060: ad83 a63f b8d7 a83f 6d47 a03f db09 a73f
00000070: d9a2 ac3f c14f a63f 3d54 a53f 5f79 a83f
00000080: 2e64 a13f 23a9 a93f 30a2 ab3f ec09 a13f
00000090: fd97 ac3f d18f 9d3f b22b a03f 72b7 a13f
000000a0: cfbb 9b3f 8a77 a23f 4485 a73f de50 a23f
000000b0: 252f a33f 6d83 ad3f 830d a33f d5b9 a33f
000000c0: 7e73 a13f 2371 9e3f c004 ad3f 6e36 a93f
000000d0: 850b a73f c739 a43f c43a a63f d99c ad3f
000000e0: 060d ab3f f252 a53f e9d3 9c3f 46b3 ac3f
000000f0: 25bc 9c3f 0bbd a13f ccbc aa3f 2d39 ab3f

11.bias f4 [64]
0.011840069 0.09527875 0.06710207 0.06708546 0.08770173 0.054558247 0.10208354 0.013273303
-0.017155511 0.007028252 0.10498238 0.069004126 -0.010869733 0.013930729 -0.027834786 0.0818497
-0.01098424 -0.009412686 0.020505713 0.111089095 0.09054307 0.046084717 0.071926236 0.018399915
0.09882121 0.058547806 0.049643416 0.066751 0.113733746 0.006803175 0.058068942 0.105108745
0.072049566 0.052299112 0.08746541 0.044628702 0.08052403 0.0004449426 0.02991497 0.09315686
-0.00051361904 -0.037388258 0.045070063 0.007505524 0.005213105 0.10648541 0.04998907 0.005319659
0.018013287 0.04209762 0.061853316 0.10338525 0.059534725 0.09031049 0.08427726 0.069097616
0.049202587 0.05607784 0.08337598 0.07561504 0.03818056 0.05399393 0.06492457 0.07612087
00000000: d9fc 413c 8121 c33d cf6c 893d 1a64 893d
00000010: f79c b33d 7878 5f3d 2d11 d13d 4578 593c
00000020: b789 8cbc 404d e63b 0101 d73d 0952 8d3d
00000030: f716 32bc b63d 643c c705 e4bc d1a0 a73d
00000040: 3ef7 33bc ab37 1abc 99fb a73c ae82 e33d
00000050: a56e b93d 54c3 3c3d 104e 933d 6bbb 963c
00000060: c662 ca3d d3cf 6f3d e556 4b3d c0b4 883d
00000070: 3ded e83d 2bed de3b b3d9 6d3d 4143 d73d
00000080: b98e 933d 9837 563d 1121 b33d 96cc 363d
00000090: c8e9 a43d 2f47 e939 3d10 f53c 06c9 be3d
000000a0: 64a4 06ba 6e24 19bd 639b 383d e6f0 f53b
000000b0: b2d2 aa3b 0615 da3d 57c1 4c3d 8950 ae3b
000000c0: 9a90 933c 8e6e 2c3d e759 7d3d a5bb d33d
000000d0: afda 733d b5f4 b83d 8e99 ac3d 0d83 8d3d
000000e0: a788 493d e1b1 653d 07c1 aa3d 0fdc 9a3d
000000f0: 3863 1c3d bd28 5d3d 2cf7 843d 42e5 9b3d

11.running_mean f4 [64]
-0.30578482 -0.173846 -0.23881574 0.14959279 -0.19555095 -0.42175907 -0.3611941 -0.26715645
-0.09203787 -0.31647995 -0.75657576 0.22339654 -0.23459068 -0.27227885 -0.1501504 0.059179183
-0.040244043 -0.41552344 -0.13552313 -0.7255503 0.36027664 0.053058833 -0.33387598 -0.0022763587
0.67964894 -0.55268365 -0.961261 -0.039127834 -0.22077183 0.00040974907 -0.09015374 -0.013962583
-0.56427574 -0.2744402 0.004896932 0.29672754 -0.43751362 -0.13411558 -0.2680945 -0.62023574
-0.054292206 -0.030507185 0.040750086 -0.27334604 -0.51123476 -0.8068744 -0.87428856 0.13780145
-0.43360108 0.22906457 0.072613016 0.0579208 -0.3616455 0.12246996 -0.032419376 0.38238028
0.14863543 -0.06282876 0.05200307 -0.073617555 -0.1750946 0.32663476 -0.75124794 -0.16346128
00000000: d48f 9cbe b004 32be 1d8c 74be da2e 193e
00000010: 823e 48be cef0 d7be 6fee b8be bbc8 88be
00000020: 5a7e bcbd a909 a2be f3ae 41bf 10c2 643e
00000030: 8a38 70be 2268 8bbe 07c1 19be df65 723d
00000040: f0d6 24bd 7dbf d4be 93c6 0abe aabd 39bf
00000050: 2e76 b83e 3854 593d cbf1 aabe f62e 15bb
00000060: 79fd 2d3f ad7c 0dbf 3315 76bf 8244 20bd
00000070: 0312 62be 97d3 d639 86a2 b8bd 51c3 64bc
00000080: 6074 10bf 6d83 8cbe 7176 a03b acec 973e
00000090: c901 e0be 9855 09be af43 89be c5c7 1ebf
000000a0: 8161 5ebd 34ea f9bc 90e9 263d 03f4 8bbe
000000b0: 48e0 02bf 528f 4ebf 60d1 5fbf d31b 0d3e
000000c0: f600 debe e78f 6a3e 22b6 943d 5c3e 6d3d
000000d0: 9929 b9be 88d1 fa3d 2eca 04bd 59c7 c33e
000000e0: e333 183e 5dac 80bd 2c01 553d cdc4 96bd
000000f0: 004c 33be ac3c a73e c951 40bf 6562 27be

11.running_var f4 [64]
0.09760167 0.100345425 0.09796888 0.10378531 0.100719176 0.12279445 0.11688484 0.095796585
0.09421283 0.12611035 0.12822962 0.11678231 0.11644039 0.100973114 0.07391049 0.10943582
0.08916847 0.10657949 0.109992795 0.16832635 0.08587967 0.105675675 0.14791173 0.078997366
0.10496234 0.11298979 0.11835128 0.099504165 0.10206467 0.08904526 0.08324315 0.11483573
0.14782497 0.11183608 0.116160266 0.10228133 0.08525022 0.13435823 0.094101205 0.1295778
0.11570562 0.101647854 0.08589807 0.105231576 0.1321906 0.13570829 0.11686814 0.11811299
0.10766112 0.122332916 0.12678267 0.07662915 0.09790686 0.10128508 0.10838269 0.09276894
0.110500015 0.12086773 0.13114628 0.08742417 0.12064262 0.11262378 0.12854396 0.09817656
00000000: 62e3 c73d e781 cd3d e8a3 c83d 658d d43d
00000010: db45 ce3d a87b fb3d 5261 ef3d 0031 c43d
00000020: a8f2 c03d 1223 013e a04e 033e 902b ef3d
00000030: 4d78 ee3d feca ce3d 625e 973d e31f e03d
00000040: f59d b63d 5946 da3d e743 e13d be5d 2c3e
00000050: aee1 af3d 7d6c d83d 2c76 173e 5fc9 a13d
00000060: 7ff6 d63d 3167 e73d 2862 f23d d7c8 cb3d
00000070: 4807 d13d 5c5d b63d 627b aa3d ff2e eb3d
00000080: 6e5f 173e 510a e53d 6fe5 ed3d e078 d13d
00000090: ab97 ae3d 3495 093e 22b8 c03d 0bb0 043e
000000a0: 11f7 ec3d c02c d03d 54eb af3d a783 d73d
000000b0: f95c 073e 1df7 0a3e 9058 ef3d 39e5 f13d
000000c0: 6f7d dc3d ae89 fa3d 51d3 013e beef 9c3d
000000d0: 6483 c83d 8d6e cf3d bef7 dd3d a4fd bd3d
000000e0: d54d e23d 8089 f73d 364b 063e 710b b33d
000000f0: 7a13 f73d 4ca7 e63d 07a1 033e cb10 c93d

16.weight f4 [32, 64]
0.11042044 -0.103222206 0.12740606 0.20776649 -0.09824934 -0.047106892 0.10075819 0.23543313
0.079488724 0.19028078 -0.11123698 -0.15684976 0.14678438 0.21729569 -0.033526856 -0.09325947
0.15357912 -0.17917132 0.20585966 -0.14329562 0.16026595 0.11037223 -0.18737407 0.115187444
0.07009059 -0.10513532 -0.05519614 -0.2891683 -0.021476125 -0.18189411 0.23198843 -0.30139586
-0.04451997 0.11089968 0.19845231 0.05117469 -0.2023067 0.15022956 -0.021186704 -0.23616083
0.034021344 0.016873702 0.23201595 0.13483332 -0.11207373 -0.028457765 -0.14436373 -0.09288312
0.110384054 0.08834883 -0.047791384 0.08902824 -0.09171591 -0.047322165 -0.31126112 0.31974375
-0.1543666 -0.2530703 -0.11342204 0.1788731 -0.057059005 -0.050199546 -0.016402215 -0.0012222863
-0.035542984 0.08546675 0.077325456 0.26241434 -0.022226641 -0.1875099 -0.1437657 0.10813654
-0.014064327 0.11999892 -0.16062728 -0.1578266 0.018125072 0.21826312 -0.17881164 -0.15178661
0.17774397 -0.27655932 -0.03207795 0.04871148 -0.114708684 0.22833502 0.070135854 -0.086120404
-0.018800098 0.06004779 -0.04174043 -0.17799684 -0.10803004 -0.01030804 0.07060022 -0.11651396
-0.042855725 0.08410251 0.2038535 0.19844235 0.07224132 0.11100826 -0.17217055 -0.059611548
0.11192088 0.059573833 0.18944743 -0.10230803 -0.01938781 -0.10557575 -0.007011915 0.19649737
0.033618405 0.11426149 -0.004806062 0.38558924 -0.15369196 -0.10004321 0.18340446 0.19635712
-0.13355733 -0.23073466 0.049854383 -0.06601015 -0.056671422 -0.0008960152 0.0058296868 0.112653375
0.19624898 0.25668094 0.030762624 0.20555663 -0.13587524 0.066558324 0.0026296517 -0.17666909
-0.09819321 -0.16589418 0.1787018 -0.1374482 -0.042746373 -0.20200297 -0.18910751 -0.100687236
0.033156626 -0.17463726 -0.039338484 0.039154075 -0.06740272 -0.046210136 0.24209625 -0.24187164
-0.1820729 0.02266183 -0.07845588 -0.044039678 -0.1471034 -0.051673822 -0.12987 0.21178241
0.2290535 -0.2303682 0.19196813 -0.048048813 0.14201401 -0.09763622 0.20968056 -0.008219709
0.12873122 -0.09299246 -0.14248598 0.05374997 0.30177423 0.25802648 -0.025815196 -0.2662932
-0.052106373 -0.16007678 0.18320441 -0.1048964 0.08224178 -0.061692163 0.23270546 -0.02992684
0.13655485 0.07299877 0.29739168 0.03521696 -0.12408487 0.000991401 0.20372166 -0.06619388
0.099990614 0.027934896 0.047508717 0.15952934 -0.28236884 -0.06597438 -0.045836747 0.1028823
0.33341968 0.0646339 0.09418159 -0.100771554 0.08719943 0.04700395 0.15556474 -0.08228893
0.31317312 0.061323382 0.23034206 -0.01936811 -0.04916031 -0.19241352 -0.055617575 0.19565876
-0.19668336 -0.20411228 -0.16043253 -0.12536106 0.104918845 -0.17618531 0.10148637 -0.1420021
-0.15088053 0.012821126 0.18022653 0.1004003 -0.15094972 0.016001232 0.26637793 0.01607798
-0.0971862 -0.035076674 0.07354132 0.37109303 0.15801471 0.14728153 -0.17415005 -0.1512573
0.035551265 -0.019516164 0.034959808 -0.06369733 0.14216785 -0.029740728 -0.058002353 0.047072053
0.095459275 -0.006989387 0.093839794 0.03897996 -0.17450105 -0.034505468 0.15349415 -0.034152105
00000000: 1d24 e23d 2a66 d3bd bc76 023e bdc0 543e
00000010: f336 c9bd 28f3 40bd 4f5a ce3d 6215 713e
00000020: fcca a23d f7d8 423e 37d0 e3bd 399d 20be
00000030: a54e 163e c382 5e3e 7553 09bd d2fe bebd
00000040: d843 1d3e b078 37be e0cc 523e 16bc 12be
00000050: c21c 243e d60a e23d fdde 3fbe 65e7 eb3d
00000060: a88b 8f3d 3051 d7bd 5915 62bd de0d 94be
00000070: b3ee afbc 7342 3abe 608e 6d3e 8f50 9abe
00000080: 925a 36bd 5f1f e33d 1537 4b3e 8d9c 513d
00000090: 7d29 4fbe c7d5 193e bd8f adbc 25d4 71be
000000a0: f759 0b3d b83a 8a3c 9795 6d3e bf11 0a3e
000000b0: e986 e5bd 4220 e9bc 16d4 13be 8139 bebd
000000c0: 0911 e23d 3bf0 b43d e6c0 43bd 7054 b63d
000000d0: 8dd5 bbbd e3d4 41bd 9e5d 9fbe 74b5 a33e
000000e0: 4712 1ebe 6e92 81be d149 e8bd 832a 373e
000000f0: b4b6 69bd 0a9e 4dbd f05d 86bc 1f35 a0ba
00000100: 8595 11bd 3109 af3d cf5c 9e3d 2c5b 863e
00000110: a514 b6bc 9802 40be 5137 13be b176 dd3d
00000120: 106e 66bc fec1 f53d 7a7b 24be 4c9d 21be
00000130: 087b 943c 5e80 5f3e 661a 37be f36d 1bbe
00000140: 8402 363e 2f99 8dbe 2b64 03bd b085 473d
00000150: 63ec eabd a8d0 693e 63a3 8f3d e55f b0bd
00000160: aa02 9abc acf4 753d 03f8 2abd ce44 36be
00000170: db3e ddbd 0ee3 28bc d996 903d df9e eebd
00000180: 7c89 2fbd f03d ac3d f9be 503e 7934 4b3e
00000190: 42f3 933d 4c58 e33d 7a4d 30be 3d2b 74bd
000001a0: c636 e53d b103 743d 82fe 413e df86 d1bd
000001b0: 2fd3 9ebc 1938 d8bd 35c4 e5bb 9b36 493e
000001c0: 74b3 093d ee01 ea3d 2c7c 9dbb f46b c53e
000001d0: 6d61 1dbe 74e3 ccbd 61ce 3b3e d711 493e
000001e0: 41c3 08be b545 6cbe 1c34 4c3d 5430 87bd
000001f0: 4b20 68bd 90e2 6aba f506 bf3b d0b6 e63d
00000200: 7ef5 483e af6b 833e e601 fc3c 707d 523e
00000210: e122 0bbe bb4f 883d 3c56 2c3b bee8 34be
00000220: 8619 c9bd 2ae0 29be 9bfd 363e 39bf 0cbe
00000230: d216 2fbd ded9 4ebe 66a5 41be 1c35 cebd
00000240: 3ecf 073d 1cd4 32be 6421 21bd 0660 203d
00000250: 700a 8abd d746 3dbd 14e8 773e 33ad 77be
00000260: 5171 3abe 4da5 b93c 7aad a0bd f362 34bd
00000270: 46a2 16be eea7 53bd a4fc 04be 7ddd 583e
00000280: 008d 6a3e a4e5 6bbe 4b93 443e d5ce 44bd
00000290: 1f6c 113e 80f5 c7bd 80b6 563e f5ab 06bc
000002a0: 1ed2 033e d572 bebd d8e7 11be ee28 5c3d
000002b0: 2782 9a3e 0c1c 843e 647a d3bc 9557 88be
000002c0: 7e6d 55bd 2beb 23be f099 3b3e ecd3 d6bd
000002d0: 616e a83d ecb0 7cbd 574a 6e3e 2229 f5bc
000002e0: 09d5 0b3e 6180 953d b943 983e a93f 103d
000002f0: 3520 febd e6f1 813a 699c 503e a890 87bd
00000300: e1c7 cc3d b9d7 e43c 8098 423d a95b 233e
00000310: a692 90be 931d 87bd 50bf 3bbd f5b3 d23d
00000320: fcb5 aa3e c75e 843d 47e2 c03d 5161 cebd
00000330: 9d95 b23d 3787 403d 5d4c 1f3e 1987 a8bd
00000340: 3a58 a03e 3a2e 7b3d cade 6b3e dfa9 9ebc
00000350: 525c 49bd 0d08 45be 41cf 63bd c55a 483e
00000360: 5d67 49be cf02 51be 6d48 24be a65e 00be
00000370: b1df d63d ec69 34be 16d8 cf3d 0069 11be
00000380: 6d80 1abe b30f 523c 4e8d 383e ac9e cd3d
00000390: 9092 1abe 0415 833c b062 883e f8b5 833c
000003a0: 8f09 c7bd 8fac 0fbd d59c 963d e8ff bd3e
000003b0: 9cce 213e f8d0 163e 6454 32be 32e3 1abe
000003c0: 349e 113d 5de0 9fbc 0432 0f3d bf73 82bd
000003d0: 7394 113e d4a2 f3bc e093 6dbd a0ce 403d
000003e0: 2780 c33d 3a07 e5bb 142f c03d 73a9 1f3d
000003f0: 67b0 32be 9b55 0dbd 922d 1d3e 14e3 0bbd

16.bias f4 [32]
0.14122152 -0.008494356 0.09651626 0.044325255 -0.08449349 -0.05802286 0.07014697 0.031417616
-0.02372075 -0.01747197 -0.032731257 0.014127683 0.12739263 0.025720483 0.10542569 -0.011803052
0.11791667 0.140438 0.09869249 -0.05472229 0.05382518 0.12329972 0.023526276 0.044399343
-0.0020322234 0.07747033 -0.026574241 -0.04885642 -0.0024219265 -0.05286429 0.0228583 0.14606266
00000000: 609c 103e e92b 0bbc 51aa c53d 668e 353d
00000010: ec0a adbd 61a9 6dbd 37a9 8f3d c2af 003d
00000020: 0552 c2bc 6021 8fbc 3611 06bd cc77 673c
00000030: 3773 023e c3b3 d23c 6de9 d73d 9761 41bc
00000040: 4c7e f13d fbce 0f3e 4a1f ca3d 7b24 60bd
00000050: cb77 5c3d 9084 fc3d 2dba c03c 16dc 353d
00000060: 0d2f 05bb c4a8 9e3d 39b2 d9bc ab1d 48bd
00000070: 2fb9 1ebb 3a88 58bd 5441 bb3c 7391 153e
