Practice/checkpoint/trained_model.pth (torch, 245689 bytes, 22 tensors)

0.weight f4 [32, 3, 3, 3]
00000000: d2d9 033d 66c3 053e fb01 06be 314c 00be
00000010: 82be 77bd de2d 583d eea4 5f3c d1b6 273e
00000020: b967 b7bc 06a1 563d 5dd5 84bd 56e1 0dbd
00000030: f18e 3bbe 0744 08be 5f21 b0bd ba36 e2bb
00000040: 19c2 623d 5ccf c53d 140c 39be 216b 00be
00000050: 9bbb 813d bad4 1e3e 2fd6 d1bc 655a 3c3e
00000060: 2759 23bd ec35 1c3d d754 613e 6b19 eabd
00000070: 61fd 9cbd a307 293d b091 eabd 4562 c83d
00000080: 3ac2 10be e80c e2bd 33e6 43be 84d3 4dbe
00000090: 1800 f9bd ac1f 253e c6f7 ce3d ed2e 863d
000000a0: 82c3 81bc e859 e1bd a0cc 85bb 7616 5bbe
000000b0: 9bf9 2abe f917 25be b233 973d 1122 aa3d
000000c0: 68af f2bd 29be c6bc 9cde f63d 2057 443e
000000d0: 6f0c be3d 8d8d 4e3d c6f4 783d 4dfb 2fbe
000000e0: dbb3 aa3c 7e9e 4bbe a10a 10be 3c39 34bd
000000f0: a7f4 0b3e 0b90 403e 6c14 3d3d 925b fc3b
00000100: 1eec 953d 4180 2fbd 4af2 65bd ac30 cd3c
00000110: 4809 0b3e 68fa 0e3e 14a4 10be e231 01bd
00000120: ab8b a33d 4d48 3e3e eb9c 363e 8ec8 ef3d
00000130: fc5f 0a3d 90d0 25be eda4 9cbd 079d 23be
00000140: f0b1 50be e44f 043e 4da7 103e a1ed 3dbe
00000150: 1cde ed3b 9bb2 35bd cf1e 04bd 728b 97bd
00000160: 7e63 ce3d a210 a4bd 669e a13d b7de 053e
00000170: 3b36 303e 8234 863d 7e57 49be 9051 08be
00000180: b2f6 f93d 7396 853d a6e4 03be eff0 b5bd
00000190: 1c96 6e3e 94eb 6f3e a1b6 05be 1e8a 9fbd
000001a0: 8c3f 1ebe 77a4 92bc 40b2 0dbe a7c6 a3bd
000001b0: a469 49bc 052d d3ba 9de2 70bd 0bb0 d03d
000001c0: 15e3 4ebe 4fb4 2e3e 5a7c 113e 7166 3abe
000001d0: a41a 133d 97a2 e13c b727 5a3c 68c3 8a3d
000001e0: 98bd e43d 2243 26bd 36c3 95bd 4fbf 0e3e
000001f0: 73c9 47be f509 ecbc 0925 2a3c 7a7b 6cbd
00000200: 54ad 8bbb 8622 b0bd ec12 5dbd e4f6 b63d
00000210: 6178 91bd bb50 d8bc 036f 453e f967 73bd
00000220: cdeb 1fbd 1109 74bd b58e f23c 0b0a ed3d
00000230: eadf 2e3e c7d7 0f3e 9649 4b3e 9f18 22bc
00000240: 80d4 17be 3f82 d6bd c821 073e 1da9 00bc
00000250: 607a 10be a505 3cbe f25c 1bbe a197 31be
00000260: bf89 38bd 1607 533e 324a 2c3e 864b d2bd
00000270: 79a9 2c3e 3cc1 15be a77f e6bc e4fa 46bc
00000280: 988e 8dbc c4b8 97bc 69c0 26be 6997 26be
00000290: 5bd0 39bd bd66 f33c 9699 70bd c98a d83d
000002a0: b8bb ecbd 979d 123d 64b0 813e 6851 58bd
000002b0: 65ab 593e 4533 923d 6ab0 18be 32dc 263e
000002c0: 040a f13a 38a8 e6bd ce47 fd3d c338 34be
000002d0: 0c9a bb3c b827 02bd af22 c53d 5b0c 823d
000002e0: 0e0e f03d 5d33 653d 0de4 7fbd 003b 80bd
000002f0: a2c4 50be 6476 083e 9088 3d3e 0349 353e
00000300: 74f6 28be a920 98bc f898 19be 18c3 adbd
00000310: 2450 d5bd 2893 8f3d e8f2 e2bd 3c23 193c
00000320: 6087 1c3d c252 ed3d 2bf2 14be ea9e efbd
00000330: 4a4b 3bbd 65f6 443e 64f2 33bc f364 013e
00000340: 4ab4 103d 38ed 883b 1a35 34bd 0848 a3bd
00000350: 7725 d5bb db4a debc 4877 0d3b ef1d e93c
00000360: ad6f babd a03d b3bd e20f 373e c300 0dbe
00000370: 087b 8e3c ce91 593e 21bc c53d 303a 303d
00000380: 4ce1 6fbe 8b77 d63d 9f48 1fbe 9619 6ebd
00000390: 1b39 aabd f650 b2bc 42e3 c4b9 e25a 103e
000003a0: 081f ca3c 407f 8b3d 1834 013e ad18 f5bd
000003b0: e2c1 d23d b50c 1fbe 24da 81bd 7749 943d
000003c0: c96b d93c e0ec 0d3e afb7 18be de30 643a
000003d0: 6a79 9e3d 33e4 29be 48cc 0d3e f9ab 41be
000003e0: f5ce b83c 651f dfbc 0bc2 f4bd 7061 4d3d
000003f0: 00f7 0f3e 5f65 afbd 0f4b d5bd 1708 a0bd
0.03219015 0.1306282 -0.13086693 -0.12529065 -0.060484417 0.052778117 0.013650162 0.16378333
-0.022388326 0.052399658 -0.06486008 -0.034638725 -0.18316247 -0.133072 -0.08600115 -0.0069034966
0.055360887 0.09658691 -0.18071014 -0.12540866 0.06334611 0.15510836 -0.025614826 0.18393858
-0.039879944 0.03813736 0.2200502 -0.11430629 -0.07665516 0.04126705 -0.11453569 0.097843684
-0.14136592 -0.11037618 -0.19130783 -0.20100218 -0.12158221 0.16125363 0.10105853 0.06551919
-0.015840296 -0.110034764 -0.004083231 -0.21395287 -0.1669678 -0.16122426 0.07382907 0.08307279
-0.11849862 -0.024260597 0.12054178 0.1917386 0.09279715 0.050427962 0.06078031 -0.17185707
0.020837715 -0.19884679 -0.14066555 -0.043999895 0.13667546 0.18804948 0.046162054 0.0077013457
0.073204264 -0.04284692 -0.056139268 0.025047623 0.1357776 0.1396271 -0.14125091 -0.031541713
0.07985624 0.18582268 0.17833297 0.11708175 0.033782944 -0.16192842 -0.076486446 -0.1597787
-0.20380378 0.12921101 0.1412632 -0.1854768 0.0072591435 -0.044359785 -0.032255944 -0.07399644
0.100775704 -0.08010985 0.0789154 0.1307324 0.17208187 0.06552984 -0.19662282 -0.13312364
0.122052565 0.065228365 -0.12880191 -0.08883845 0.2329945 0.2342971 -0.13057949 -0.07790016
-0.15453929 -0.017900689 -0.13837528 -0.07996874 -0.012293253 -0.0016111439 -0.058809865 0.101898275
-0.20203812 0.1706097 0.14207593 -0.18203141 0.03591408 0.02754335 0.013315133 0.06775552
0.11168975 -0.040591367 -0.07312624 0.13940166 -0.1951044 -0.028813342 0.010384806 -0.057734944
-0.0042626057 -0.08600335 -0.053973123 0.089338094 -0.071030386 -0.026405683 0.19280629 -0.059425328
-0.039043237 -0.05957896 0.029609064 0.11574181 0.17077604 0.14047156 0.1985229 -0.009893565
-0.14827156 -0.10474061 0.1319648 -0.00785282 -0.14109182 -0.18361528 -0.15172175 -0.17342998
-0.04505324 0.20608172 0.16825178 -0.10268311 0.16861524 -0.14624494 -0.028137041 -0.012144778
-0.017279908 -0.01852072 -0.16284336 -0.16268696 -0.04536472 0.029712075 -0.05874022 0.10573346
-0.11559242 0.03579482 0.25329888 -0.05281201 0.21256788 0.07138685 -0.14911047 0.16294935
0.0018389826 -0.11262554 0.12367211 -0.17599778 0.022900604 -0.03177616 0.09625756 0.06350013
0.11721431 0.055957187 -0.062473346 -0.06261253 -0.2038751 0.13326412 0.18509126 0.17703633
-0.16500264 -0.018570261 -0.14999759 -0.08484477 -0.10415676 0.0701049 -0.11081487 0.009346779
0.03821504 0.115880504 -0.14545505 -0.11700232 -0.045726098 0.19234617 -0.010983083 0.12636165
0.035328187 0.0041786693 -0.043995954 -0.07972723 -0.0065047103 -0.027135303 0.002158599 0.028456656
-0.09103332 -0.087519884 0.17877153 -0.13769822 0.01739265 0.21247026 0.09655023 0.043024242
-0.23425788 0.1047202 -0.15555046 -0.05812987 -0.08311673 -0.02176712 -0.00037553353 0.14097169
0.024673 0.068113804 0.12617528 -0.11967597 0.102908865 -0.15532191 -0.06340435 0.07240575
0.026540654 0.13859892 -0.1491382 0.00087047915 0.07738002 -0.16590957 0.13847458 -0.18913259
0.022559622 -0.02723665 -0.11951073 0.05014175 0.14059067 -0.08564257 -0.10414707 -0.07814043

0.bias f4 [32]
00000000: 41fc 4f3e a5f0 a2bd 3709 b3bc e671 b4bd
00000010: 6f80 713b cf15 133d 92e2 873c 9dae 8b3c
00000020: ccc5 46be da1c 4e3c 129d 6fbb f0a5 aebb
00000030: dcc3 1e3e 45d4 703e d215 06be f5e4 dd3b
00000040: e530 9dbd 6b35 26be e216 1bbe 6e44 143e
00000050: 1b1a d43d 9ee5 403d e3e3 c73d 4770 25be
00000060: bb64 443d d2cc 173e 6cef f1bd cb06 393e
00000070: f07a f93c 35fc 0b3e 8f3c dfbd 8cc7 df3d
0.20311071 -0.079560556 -0.02185498 -0.08810787 0.0036850234 0.03590947 0.01658753 0.017051036
-0.19411391 0.012580121 -0.0036562127 -0.00532984 0.15504402 0.23518474 -0.13094261 0.0067716786
-0.076753415 -0.16231315 -0.15145448 0.14479229 0.10356542 0.04709398 0.09760263 -0.16156112
0.047947627 0.14824226 -0.11813244 0.18068998 0.030454129 0.13670428 -0.109002225 0.109267324

1.weight f4 [32]
00000000: 18a2 693f 61aa 3e3f 5798 6a3f d5c4 783f
00000010: 46c4 ae3f d0c2 5b3f b5a8 593f 04de 853f
00000020: 8d83 873f eeed 493f f5d5 5f3f fdf3 793f
00000030: 6f6a 5b3f 53fa 823f c6b2 493f 7f38 913f
00000040: 6ea6 463f 3e19 8b3f 8f22 803f 989b 863f
00000050: 9d68 8c3f f4e0 823f 8837 603f 8570 6d3f
00000060: 012d 413f 6127 5a3f b8a9 873f abf3 603f
00000070: 98a4 853f 7fc4 613f 77d1 9a3f 1e6d 7e3f
0.9126296 0.7447873 0.916387 0.9717534 1.3653648 0.85844135 0.8502305 1.0458379
1.0587021 0.78878677 0.8743585 0.9763792 0.8570928 1.0232643 0.7878841 1.1345366
0.775977 1.0867078 1.0010546 1.0516233 1.0969425 1.02249 0.87584734 0.92749816
0.75459296 0.8521634 1.0598669 0.8787181 1.0440855 0.88190454 1.2095174 0.9938525

1.bias f4 [32]
00000000: c642 463d 17ed 94be 7137 b3bd ceec d53b
00000010: eb68 0dbe dc1a 65be 0ff6 b43a 1b00 87bd
00000020: 0fde 0bbe 5550 e1bd ba33 4fbe 77b5 35be
00000030: 00ad 8dbe 5547 19be 77f1 27be 2f95 87be
00000040: 4425 03be 7970 d6bd 4a8c 0cbe 32c9 38be
00000050: 3149 57be 0641 a4be 765f debd d02d a0be
00000060: 438c eebd 7434 64be 8b29 60be a04c 173e
00000070: 7cad 99bd ea4d d03d 86cc 29be 035e 47be
0.048403524 -0.29087135 -0.08750809 0.0065284735 -0.13809554 -0.22373527 0.0013806241 -0.06591817
-0.13658927 -0.1100165 -0.20234576 -0.17745005 -0.2767105 -0.14968617 -0.16400705 -0.26481006
-0.12807184 -0.10470671 -0.13725391 -0.180455 -0.21024014 -0.3208086 -0.108580515 -0.31284952
-0.116478465 -0.22285634 -0.21890847 0.14775324 -0.07503793 0.10171111 -0.16581926 -0.19469456

1.running_mean f4 [32]
00000000: 03b8 4b3e 006a 92bd e38b 91bc 9d24 b0bd
00000010: ada2 8e3b cc84 1e3d d04c 9a3c d7bd 8b3c
00000020: 7874 47be 9831 523c ab09 74bb 9d22 a3bb
00000030: f429 223e fc2b 6f3e fbc6 08be 5bbd ef3b
00000040: 9495 90bd fe42 26be 2e4b 1cbe e30c 133e
00000050: 2c50 d23d a9af 4c3d 3555 cc3d 0df3 25be
00000060: ad69 383d 380d 193e 7a10 f8bd 4129 333e
00000070: 2873 f83c 0873 0e3e 4103 d8bd cbcb db3d
0.19894414 -0.07149124 -0.017766898 -0.086007334 0.0043528886 0.038700864 0.018835455 0.017058296
-0.19478023 0.012829207 -0.0037237208 -0.0049784915 0.15836316 0.23356622 -0.13357155 0.007316274
-0.0705978 -0.16236493 -0.15263054 0.14360385 0.10269198 0.04997221 0.099771895 -0.16205998
0.045022655 0.14946449 -0.12112518 0.17496206 0.030328348 0.13911068 -0.10547496 0.1073223

1.running_var f4 [32]
00000000: 995a ca3d 4658 283f 2b88 463d b7b7 343e
00000010: ad69 083d 1bc4 a43d fb9d 853d 878e 653d
00000020: 712f 093d d611 163e 8354 b03d 7956 0f3d
00000030: a44c 993e 9cf3 be3c c90f 923e db90 5e3c
00000040: fb99 563e 7f8c 8a3d 679c c63d c6fc dc3c
00000050: a666 f63c 3902 173d 3c4f 693e a557 953d
00000060: c6f8 d53d 8046 923d cd05 123e 5d05 0d3e
00000070: b378 573e 53e0 9d3d d76e b83c 9e77 0c3c
0.098805614 0.65759695 0.048469704 0.17648207 0.033303905 0.08045217 0.06524273 0.056044128
0.03349251 0.14655241 0.08609869 0.034994576 0.29941285 0.023309521 0.28527668 0.013584341
0.20957176 0.06765079 0.096978 0.026976 0.030078243 0.036867354 0.22784132 0.072921075
0.104478404 0.07142353 0.14260025 0.13771577 0.21042137 0.07708802 0.02251379 0.008573441

5.weight f4 [64, 32, 3, 3]
00000000: b8cf 63bd 256b 1f3b bc9f 48bb 6531 0abc
00000010: 1b2e 4c3d 4361 8e3d 4d1f 773d 5e0e 913d
00000020: d816 8e3d 3fae 593c 16f8 f8bc b6ee f63a
00000030: 7680 243d 77a5 0aba e848 603d abf9 1a3d
00000040: e83f 813c 8dc5 cf3c 28db 27bc 3325 02bd
00000050: 1236 28bd f219 97bd 04d6 e6bc 3b2d 15bd
00000060: 8267 323d a6ec cdbc 3f5d 90bc 4d3e 37bd
00000070: f226 4cbd b341 f7bd 97cd e7bc c228 2dbd
00000080: 34e1 40ba 02dd 54bd efab f63c 651d 8fbd
00000090: 1c3e 663d 4025 3d3e 60ae 823d 001d 98bd
000000a0: 6631 88ba d6b1 43be 34d3 f9bd 224e 10be
000000b0: fda5 58be f82b ccbd 3592 44bd a4fc e2bc
000000c0: 7663 45bb b360 433d bfee 0e3b aa94 073c
000000d0: defe ed3d deb4 6d3d 973f b7bb 0393 29bd
000000e0: 1dae 0bbd 659e 0b3d 9093 ee3a 393a 623b
000000f0: 4652 6e3c 95ba 81bd c42d c63b 2bd0 6cbd
00000100: 5b6e 00be dd1d b2bd 24fb da3c f314 b9bd
00000110: dfe6 f5bd 14fd c1bd 0d18 9fbd a753 3abe
00000120: f009 053d 0333 8d3d 2716 23ba 9168 fbbb
00000130: 3da0 5f3d f4b0 523d 2507 61bd 4dbe 28bc
00000140: 112f 6bbc 4c9a 5cbd 1659 e5bd 76e1 c1bb
00000150: 0bec 5fbd eb61 a3bd 8299 923a f41a 44bd
00000160: 5bbd e23b e419 7dbc 59d6 d2bd e78c 6bbd
00000170: 293a 92bd 9397 ca3c 23ec 20bd ab8e da3b
00000180: 9c7b 213d ef53 fcbc 546a 253c 0945 38bc
00000190: c575 953d 8ac4 593d fed4 afbd bc7f 91bc
000001a0: aaac 4f3c aca8 54be 107e 3cbd 3ed3 7cbd
000001b0: 669d 33bc 2ab5 1a3c e0ac 5abd b7d2 973c
000001c0: 3262 e83c 9765 783c 384f 5c3d 72d1 613d
000001d0: 5705 653d 4791 18bd afd2 1c3d c07a 86bd
000001e0: 23d7 f3bc 11e2 21bd 9a7e d9bd 5782 85bc
000001f0: c455 d13c 5b84 96bd 7e98 40bd 0613 9d3c
00000200: 0101 a8bc b90e a8bc 1ae4 263c 1c50 403d
00000210: 9815 7dbb 5c9b 7e3d 8237 4c3d c981 523d
00000220: e32d 1d3d 9e87 ab3b fe62 c7bc a2e0 7dbc
00000230: f7d2 8cbd e402 14be a984 1abe aa2c aebd
00000240: bf13 83bd c61c 9e3c 6b62 89bc dabf 6fbc
00000250: 3ed1 d03c ed37 6b3b 0972 8b39 a9b6 9e3b
00000260: fec6 78bd 1974 e53d a57b a93d 503b fa3c
00000270: 0a48 df3d 856a 113d cc20 d1bd 4a8d c0bd
00000280: ec15 33bd 04e2 b7bd 41a9 603d 3325 163d
00000290: ccd2 41bd 6ad5 813d 869e 0f3b c990 b1bc
000002a0: 9eb8 123c 64d1 0dbd c9b0 2ebd 3cd2 553d
000002b0: 8d79 6d3c 5802 ae3c bb6c 8c3d f858 e0b9
000002c0: d6da 653d 0f29 1cbd 2760 6f3d cec3 12be
000002d0: 35fa 743d ce98 883d ef1a 943c aa5e 963d
000002e0: b7b5 e73d e877 4d3d bbe0 403d 1b1c 4b3d
000002f0: c189 4fbc 874f dbb9 a2cf 6fbc dcfe 9fbd
00000300: 9970 053d 9627 733c 1179 4dbc abfe 1cbb
00000310: d429 d7ba 643f d83c a316 55bd 8491 a03c
00000320: a06d e5bb 51f6 1dbd 2969 6e3d e9ec 333d
00000330: 8eee ca39 ea56 7c3c b8f5 533d bddd 0e3d
00000340: 87fd 68bc 6acc 623d c1b2 98bb 6780 993c
00000350: a3b3 d03d 6f6c 0dbd 6004 22bd 8265 eabc
00000360: 4c8a bf3c 5eb3 333d 484f 02bd 6015 fcbb
00000370: 6220 e73c 9425 80bc ba39 48bd 0f0e 8b3a
00000380: f183 463c 67bc ccbc 8f84 463b 263e be3c
00000390: a114 21bc 4e82 543d 57db 043d 46a0 2fbc
000003a0: 3260 0d3d bc56 9bbc e05b 78bd 95c7 a1bb
000003b0: 84a6 15bd 668b 7d3d 7a48 86ba e71f c73b
000003c0: ef73 273d 86a9 e23c b41a 433d 358f dabc
000003d0: cee1 26ba 6fb4 71bc fb0e 8ebc 2386 c9bc
000003e0: 2c47 693c 1f03 ae3c cdd6 963d 1271 3c3c
000003f0: 1f70 0c3e bc6f 763d ab52 bc3d 4461 a8bc
-0.055618018 0.0024325338 -0.0030612787 -0.008434628 0.049848657 0.06952145 0.060332585 0.070828184
0.06937951 0.013286172 -0.030391734 0.0018839452 0.040161572 -0.00052889384 0.05475703 0.03783576
0.015777543 0.025362754 -0.010245122 -0.031773757 -0.04106719 -0.073779956 -0.028178222 -0.03642009
0.043555744 -0.025137257 -0.017622588 -0.04473715 -0.04984183 -0.12073078 -0.028296275 -0.042275198
-0.00073577766 -0.051968582 0.030111281 -0.069880284 0.056211576 0.18471241 0.06380916 -0.07427406
-0.0010390698 -0.19110808 -0.12198487 -0.14092305 -0.2115707 -0.09969324 -0.047990996 -0.027708359
-0.0030119098 0.04769964 0.0021809784 0.00827519 0.11620878 0.058033817 -0.0055922973 -0.041399967
-0.034101594 0.034086604 0.0018201936 0.0034519567 0.014545983 -0.06334416 0.006047936 -0.057815712
-0.12542097 -0.08697102 0.026731081 -0.09037199 -0.12006926 -0.09472099 -0.07768259 -0.18195973
0.03248018 0.06894495 -0.00062212575 -0.0076723774 0.054596175 0.051438287 -0.054938454 -0.0102992775
-0.014354483 -0.053858086 -0.111986324 -0.0059167696 -0.054668467 -0.07977661 0.0011184665 -0.047877267
0.0069195456 -0.015448067 -0.1029479 -0.05750742 -0.071399994 0.02473048 -0.039287698 0.0066698394
0.039424524 -0.030801741 0.010096151 -0.011246928 0.072978534 0.05316595 -0.08585547 -0.017761104
0.012675444 -0.20767468 -0.04601866 -0.061724894 -0.01096282 0.009442607 -0.053387523 0.018533094
0.028367136 0.01516094 0.053786486 0.055131383 0.055913296 -0.037247922 0.03828686 -0.065663815
-0.029765671 -0.039522234 -0.106198505 -0.016297502 0.025553592 -0.073494636 -0.047020428 0.01917411
-0.020508291 -0.020514833 0.01018622 0.0469514 -0.0038617607 0.06215988 0.049857624 0.051393304
0.03837384 0.0052346727 -0.024339195 -0.015495451 -0.06876176 -0.14454228 -0.15089668 -0.08504613
-0.06400251 0.01930083 -0.016770562 -0.014633143 0.0254904 0.0035891489 0.0002659711 0.004843552
-0.06073665 0.112037845 0.082755364 0.03054586 0.10902412 0.035501976 -0.10211334 -0.09401949
-0.04372208 -0.08978656 0.054848913 0.03665657 -0.047320172 0.063395336 0.0021914556 -0.021675484
0.008955149 -0.03462352 -0.042649064 0.05220245 0.014494312 0.021241352 0.06856676 -0.00042790896
0.0561169 -0.038125094 0.058441307 -0.14332506 0.05980893 0.0666977 0.01807925 0.073422745
0.11313956 0.05016318 0.04708932 0.04958735 -0.01266712 -0.00041830188 -0.014636906 -0.078122824
0.032578085 0.014840981 -0.0125410715 -0.0023955505 -0.0016415664 0.026397415 -0.05202354 0.019600637
-0.0070015937 -0.038564984 0.058205757 0.043927107 0.0003870618 0.015401581 0.051748008 0.034879435
-0.014220602 0.055370726 -0.004659981 0.018737985 0.10190513 -0.03452724 -0.039554954 -0.028612856
0.023381375 0.04387223 -0.03181389 -0.007692978 0.028213684 -0.015642919 -0.048883177 0.0010609048
0.012116418 -0.024992181 0.0030291413 0.023222994 -0.0098315785 0.05188208 0.03243574 -0.0107193645
0.034515567 -0.018962257 -0.060634494 -0.004937122 -0.036535755 0.06190052 -0.0010244988 0.006076801
0.040882047 0.027668726 0.047632888 -0.026679615 -0.0006366045 -0.014752491 -0.017341128 -0.024600094
0.01423816 0.021241723 0.07365189 0.011501567 0.13714646 0.060165152 0.09195455 -0.020554192

5.bias f4 [64]
00000000: c742 cdbc ea70 c33c 566b 2abd 30cd 283c
00000010: 7200 46bc cd2f 49bd b3d1 0d3d 8436 97bc
00000020: b50c 3bbd 7808 7a3d df26 113d 762b 623d
00000030: f3ab 0c3d 9b7b 6abc 2af8 11bd 30db 78ba
00000040: 2ff5 d4bb 97d7 a83c 8813 7abc 2c17 a13d
00000050: a5e2 dfbc c094 243d ef11 0d3d 3eef fabc
00000060: 7dd4 463d 62e5 1c3c 2f09 d1bc 8d2c 4abd
00000070: 897b 3f3d 8677 313d 9c61 423c c861 b13c
00000080: 055a a73c 63c1 5d38 65cc c7bb 5f89 0fbd
00000090: 735a e1bb 0bcc 813c 5131 80bc 76a3 963c
000000a0: f339 58bd 838a 75bd f0a0 403d d0c0 90bc
000000b0: f0db 7e3c 8a74 473d f417 95bc 460b 7d3d
000000c0: 3bd9 a0bc ad6d 68bd 4cad 33bd c489 f4bc
000000d0: 407c 3dbd 156f 32bd 3027 273d 5ab3 1f3d
000000e0: 6722 5e3d c86e a13c eb64 80bc 3e78 86bc
000000f0: da28 e43c 516b 433d f21e 9bbc 7dad c53c
-0.025056256 0.023857553 -0.04160627 0.010302827 -0.012085067 -0.049117852 0.034623813 -0.018458612
-0.045666415 0.061043233 0.03543746 0.05521723 0.03434367 -0.014311696 -0.03563706 -0.00094931107
-0.0064989547 0.020610614 -0.015263446 0.07865748 -0.027329752 0.04018092 0.03444093 -0.030631658
0.04854249 0.0095761735 -0.025517074 -0.049358893 0.04674867 0.043326877 0.011864092 0.021653071
0.020428667 5.287061e-05 -0.006097364 -0.035043117 -0.0068772375 0.015844366 -0.015648516 0.018388491
-0.05278964 -0.05994655 0.047028482 -0.017670065 0.015555367 0.048695125 -0.018199898 0.06177833
-0.019634834 -0.05674522 -0.04386644 -0.029850848 -0.046261072 -0.043562967 0.040808856 0.038989402
0.054232027 0.019706145 -0.015673121 -0.016414758 0.02785151 0.047709767 -0.018935654 0.024130577

6.weight f4 [64]
00000000: 453d 753f e075 723f f895 6f3f b8f3 653f
00000010: 784c 793f d967 6a3f 2503 7a3f 56b0 7e3f
00000020: 64bf 7b3f fb1e 783f 071c 7f3f 959e 793f
00000030: 67f8 713f 101d 683f ec4f 593f e6dd 6d3f
00000040: e9cf 793f a5de 6a3f 26a8 6c3f 569b 773f
00000050: 4ee0 713f ad54 6e3f 170e 683f e4cc 703f
00000060: 0997 783f 3f82 673f 34a7 793f 7803 703f
00000070: 596d 723f e185 703f 6170 6f3f e608 713f
00000080: 9eb9 6d3f f723 6b3f 6b09 773f 9061 783f
00000090: 1975 693f 66c1 6f3f 8672 703f 890b 733f
000000a0: 2a9e 763f c1c4 793f b89e 633f 0158 703f
000000b0: a050 6b3f 9e0c 6e3f 9af1 733f af0f 7d3f
000000c0: 2bdb 6a3f 5cce 713f e0bf 693f 3b8b 703f
000000d0: 8b23 753f 2390 7a3f 4704 673f 7db5 7e3f
000000e0: 87d8 773f 8bd6 6f3f 3d67 723f 3e19 743f
000000f0: f308 783f 8b3e 773f 282d 773f e128 6c3f
0.95796615 0.9471111 0.9358821 0.8982501 0.9738231 0.9156471 0.9766105 0.9948782
0.98338914 0.9692227 0.9965214 0.975076 0.94519657 0.90669346 0.84887576 0.92916715
0.9758287 0.9174598 0.92444074 0.967214 0.94482887 0.93097955 0.906465 0.9406264
0.9710546 0.90433115 0.97520757 0.9375529 0.946981 0.93954283 0.9353085 0.941542
0.92861354 0.91851753 0.96498746 0.9702387 0.911943 0.9365448 0.9392475 0.94939476
0.9633509 0.9756585 0.8891406 0.93884283 0.919199 0.92988 0.9529053 0.98852056
0.91740674 0.94455504 0.91308403 0.9396245 0.9575736 0.97876185 0.902409 0.9949568
0.9681477 0.9368674 0.9468878 0.95351017 0.96888655 0.9657981 0.9655328 0.92249876

6.bias f4 [64]
00000000: 3dc9 b8be 95cd ccbe 1843 c7be d3f9 bdbe
00000010: 652b 9dbe 8ee1 84be 62ea 7dbe d01b eabe
00000020: d542 89be 7f81 16be d6b8 c0be a857 a9be
00000030: 0616 a2be 8f5c 96be 0555 65be 773f 1ebe
00000040: 103b c8be 7a35 e7be 6aa1 45be 7c9a 84be
00000050: 734d 6bbe 0f59 83be dcdb 92be c59f d4bd
00000060: 727d d4be b7ce abbe cc47 1fbf 9c6f aebe
00000070: 269c a4be 6787 61be fe78 babe dca3 8ebe
00000080: e4de 69be d457 6cbe 6fbe 76be e4f3 77be
00000090: 6d79 7fbe 229d aabe 42b1 02bf 129f c7be
000000a0: 8d9d abbe d129 a8be 7e88 56be cc56 ccbe
000000b0: 71a4 b0be 24f5 4cbe bdbb 62be 3ee9 c6be
000000c0: 72d2 a2be 4734 97be b45d 44be cbca bebe
000000d0: e380 a6be e335 a7be dda3 8abe 1a1e 04bf
000000e0: 6c5b 4abe 8464 81be 391a 93be 9d08 a9be
000000f0: bf5e 95be bc75 99be 4236 86be 804a a5be
-0.36091033 -0.40000597 -0.38918376 -0.37104663 -0.3069717 -0.25953335 -0.24796441 -0.45724344
-0.268088 -0.14697836 -0.3764102 -0.3307469 -0.31657428 -0.29367492 -0.22395714 -0.15453897
-0.3910756 -0.45157987 -0.19299856 -0.25899112 -0.22978763 -0.25653884 -0.28683364 -0.10382036
-0.41501957 -0.33556148 -0.6221893 -0.34069526 -0.32150382 -0.22024308 -0.36420435 -0.2785939
-0.22838932 -0.23080379 -0.24096082 -0.2421413 -0.24948664 -0.33323008 -0.51051724 -0.3898855
-0.3351864 -0.32844403 -0.20950505 -0.3990997 -0.3450046 -0.20015389 -0.22141929 -0.38849825
-0.31801182 -0.29532072 -0.1917637 -0.37264094 -0.32520208 -0.326583 -0.27078143 -0.5160843
-0.19761437 -0.25272 -0.28730944 -0.33014384 -0.29173848 -0.29972637 -0.2621327 -0.322834

6.running_mean f4 [64]
00000000: bed8 39bf 1a8e 6fbe 4eab 09be 2643 afbb
00000010: 690f 25bf 592c aebe a390 fcbe 0e47 dabe
00000020: ccac 01bf 6a75 92bf 183d 33bf 5693 c5bd
00000030: 78a7 66bd ce21 cfbe 89f7 26bd 7886 e1be
00000040: 6f75 c0be 5623 18bf b325 8fbf 4a2a 1ebf
00000050: be0e 0dbf 42c5 07bf b62e 503e c25e debe
00000060: 8419 ebbe e40e 95be bfbc babe dd0e 92be
00000070: d452 cdbe 4420 3dbf cc3b 3cbf 31bb eabe
00000080: 9858 01bf d4ce 57bf 2e90 37bf ab88 a0be
00000090: 8b7a 64bd ccd5 cabd 2626 c3be 0452 84be
000000a0: 1ebd 18bf ed5c a4be 9fb5 823d 9e14 87bf
000000b0: 748e 11bf cece 9ebe 4248 55bf 23d8 5ebf
000000c0: 8322 e2be d8b3 33be 6a44 14bf d4a7 e8be
000000d0: 440f b1be acd9 54bf 5e08 8e3d ef32 09bf
000000e0: 4877 e4be fa1b debe b267 ffbe 596b 33bf
000000f0: 0d51 34bf 327f f8be dce3 58bf c1a6 b9be
-0.7259635 -0.23394051 -0.13444254 -0.005348581 -0.6447664 -0.3401821 -0.493291 -0.42632335
-0.5065429 -1.1442082 -0.70015097 -0.09647243 -0.056312054 -0.40455478 -0.04076341 -0.44047904
-0.37589595 -0.5942892 -1.118338 -0.6178328 -0.5510062 -0.53035367 0.20330319 -0.4343167
-0.45917904 -0.29112923 -0.36472127 -0.28526965 -0.40102255 -0.7387736 -0.7352874 -0.4584594
-0.5052581 -0.8429997 -0.71704376 -0.3135427 -0.05578093 -0.0990406 -0.38115042 -0.25843823
-0.5966357 -0.32102147 0.06382298 -1.0553167 -0.5685799 -0.31017154 -0.8331338 -0.8704855
-0.44166955 -0.17549074 -0.5791689 -0.45440543 -0.3458196 -0.8314464 0.0693519 -0.53593343
-0.44622254 -0.4338072 -0.498838 -0.70085675 -0.70436174 -0.48534542 -0.84722686 -0.36260036

6.running_var f4 [64]
00000000: 1708 103f 0755 0e3f df84 6d3e c49d a03e
00000010: 03c3 1d3f e960 883e 6ecc bf3e bf52 eb3e
00000020: 5e86 003f debf 4f3f 40e0 f73e 50ef c33e
00000030: a0bd 893e d86b 643e 3f04 cd3e 7473 113f
00000040: 2fba b93e 97d9 1c3f a678 5f3f 4862 d93e
00000050: 59cf e43e face 143f 2c3b e03e 9429 f83e
00000060: 7a10 f33e 09d7 5d3e 7a18 da3e 3e44 ba3e
00000070: 3730 e03e 22bd 4d3f 1abb 143f e809 b03e
00000080: d757 c43e 39b7 683f 267a 313f 2368 573e
00000090: 9a16 9c3e 7ae1 a33e 3fc8 083f 3108 8f3e
000000a0: 0834 373f 966e b03e d375 043f f999 5a3f
000000b0: 83a8 f03e 8f64 563e c4bc d23e da2c 3b3f
000000c0: 86c0 d73e 0d7c b33e ac41 be3e 539e 073f
000000d0: efc6 b63e c390 093f f5ba fc3e 4a49 0d3f
000000e0: c0b0 ef3e 8e1d c33e 37e1 b83e f61b dc3e
000000f0: baa4 253f c704 e83e 7bb9 1f3f 2e7e 963e
0.56262344 0.5559849 0.23195218 0.31370366 0.6162569 0.26636437 0.37460655 0.45961568
0.5020503 0.8115214 0.48413277 0.38268518 0.26902485 0.22306764 0.40042302 0.5681679
0.3627486 0.61269516 0.8729347 0.42457795 0.44689444 0.5812832 0.43795145 0.48469222
0.47473508 0.2166406 0.425968 0.3638019 0.43786785 0.8036672 0.58097994 0.34382558
0.38348266 0.90904576 0.6932701 0.21035819 0.30485994 0.32007962 0.5343055 0.27935937
0.7156377 0.3445937 0.51742285 0.85391194 0.47003564 0.20936798 0.41159642 0.73115313
0.4213907 0.3505558 0.3715948 0.5297596 0.3569865 0.53736514 0.49361387 0.55189955
0.46814537 0.38108486 0.36109325 0.42990083 0.6470448 0.45316145 0.62392396 0.29393142

10.weight f4 [64, 64, 3, 3]
00000000: 6ec5 adbd 5095 edbd 4f8f 05be d191 82bd
00000010: e367 8fbd d68e b7bd b37f babb 5a5a 14bc
00000020: 7087 45bd 4967 a0bb 19e9 d33c 50d8 373d
00000030: 16cb 55bd db9a 49bc 9e6d 103c 8620 92bd
00000040: baae 0abc e20f 1fbd ba2f dfbc 8495 9abc
00000050: 9d39 47bd f720 89bd bfb0 23bd 144b 74bd
00000060: 4e82 9fbd c7d2 d2bc 3fb3 a0bd 558f a03c
00000070: 1378 01bc cb6c 12bd 8f82 10bd ba68 bebc
00000080: afb3 79bd 5cfb 8fbd 20d9 7abd a8be d3bd
00000090: 5a1b c6bb add1 2fbd 3451 6dbc c3eb 31bd
000000a0: e567 32bd d2b7 36bc 35c9 713d 110a a6bc
000000b0: df73 213d b6c5 60bd 55dc 58bd d7ad 37bd
000000c0: c714 dfbc dd92 60bc 982e 673b 853d 7ebd
000000d0: e48d 1cbc 0770 35bd d190 273e 6ae7 7e3d
000000e0: d3fc 5e3d 67ad 0c3e 708e 843c c512 e0bb
000000f0: 5431 fe3d ac61 183d 160a 743c a361 f5bc
00000100: 4868 c0bd 9109 97bd cafc 5fbd 9f3e e4bd
00000110: 0605 d2bd d961 07bd 73f8 84bd f3df 26bd
00000120: 2d43 41bb 5f43 983d f749 293c 12ac 68bd
00000130: d90b 91bb 7701 f2bc 27a1 92b8 be67 313c
00000140: 1354 7d3c b975 4bbd 0d1f 1dbd 2e0d 353b
00000150: 8dad 47bc 5047 7fbd e63e a5bc 5d86 773c
00000160: 4c7e 88bd e737 b9ba 739f ba3d 7725 213c
00000170: 78c1 b33d dbe4 223d 4a15 d33c 4967 303d
00000180: ec57 c23b fc64 943c 49cc d83c 096e 833d
00000190: 5e45 d93d f117 b03d 3de3 453c 8bc5 aa3c
000001a0: e335 2a3c d11b 4dbc 7a1e 09bc 15f6 1dbb
000001b0: 4bfc dcbc df95 0abd efca b23d 864b e33a
000001c0: 2efa e83b a14f 7e3d 8076 0bbb 5d26 66bc
000001d0: 2128 853d 3e68 a33d 2026 263d 2279 293d
000001e0: ec15 e83c ffba 0e3c 2a8a d73b 0f01 c3ba
000001f0: 722b ebbc 73a3 10bd d10b 913b 7119 103b
00000200: 620f e9bc 49d5 ae3c 6864 0a3d a4d7 d73c
00000210: 66b0 193d 4098 813c 1245 193d 6e17 de3b
00000220: 2e80 5ebc 27fe 903c a13a f43c 0fba 8e3c
00000230: 72f6 313d 62c6 56bc 5600 a9bb 2495 463c
00000240: 2d4a b4bb 62a7 d4bb 72a3 49bc 43c8 8dbd
00000250: 06fa 21bd 0ed8 62bd 521f 07be 9009 b1bd
00000260: 5515 d6bd 204e 9b3d 06ba d53d bb26 ee3d
00000270: e19b 1a3d df89 113d 0bd4 4a3d 5aa2 9bbd
00000280: 1102 9abd 2c91 4ebd 49d3 213d 6dba d1ba
00000290: 1aa3 c33c 0b2b 9a3b 75db 9abc d440 233c
000002a0: acfe 313d d529 7abc 3fac 2d3d 688a 01bd
000002b0: 6f91 3cbd 6324 c13c 6b63 b0bd 8e17 4dbd
000002c0: 9d8d 71bd 93c1 b1bd 84dd b3bd 1a90 30bd
000002d0: ca2c 263b 54cc 6e3c 3d09 743c c56c 033c
000002e0: 886c 653b 1b08 cbbc d787 acbd 4735 11bd
000002f0: 6c0f 9bbd 511d 933d f97e c33d 7d6d a23d
00000300: 1c45 c93c 8846 1e3d 8ecf ee3c 0299 73bc
00000310: 8bcf 593c 8a6a 573c ac08 75bc 8d9b 63bc
00000320: 0e78 26bd 6e12 173c f89e c23c 5723 91bc
00000330: 0fec 023d baff 723b cbd9 bd3c cd25 aabd
00000340: bee0 adbd a03b a7bd d5e7 0fbd 65c5 4abd
00000350: d486 a9bc 9903 463a a3cf 96bc ad5f f93c
00000360: 7bdc 52bb 4859 1d3d 833a 243d d0b5 21bd
00000370: 53c7 5fbb 7bcf eebb 5180 c5bd 7fd6 a7bd
00000380: d25d a2bd 6b51 633d 845d 033d 2fe5 dd3c
00000390: 29f9 573d 915e 753d 678c 3d3d a9b4 243b
000003a0: ce1c 073c 635d 2f3d c17b 78bd f5a1 14bc
000003b0: 56a6 78bd b591 04be f272 82bd 6ea0 1abe
000003c0: b940 38be a783 02be c20c 47be 8e44 003a
000003d0: f87f e73c 448f ba3c 64e5 aabc e5ab ceba
000003e0: 1b93 c1bc 56e7 193c 4de6 da3c 8eca 073d
000003f0: 77e4 d53d 48fb dd3d 9a05 9b3d 84ee d03b
-0.08484922 -0.11600745 -0.13042949 -0.063754685 -0.07002237 -0.08962791 -0.0056914925 -0.009054745
-0.048224866 -0.004895125 0.025867986 0.044884026 -0.05219563 -0.012304987 0.008815197 -0.071351096
-0.00846451 -0.038833506 -0.027244437 -0.018870123 -0.04863893 -0.06695741 -0.03996348 -0.059641913
-0.077885255 -0.025735272 -0.078466885 0.019599596 -0.007902163 -0.035748284 -0.03528076 -0.023243297
-0.060962375 -0.07030365 -0.061242223 -0.10339099 -0.006045741 -0.04292457 -0.014484692 -0.04343773
-0.043556113 -0.011152225 0.059029777 -0.020268472 0.039417144 -0.05487605 -0.0529445 -0.04484352
-0.027231587 -0.01370689 0.0035275575 -0.06207039 -0.009555314 -0.04429629 0.16363837 0.062232412
0.05444033 0.13738023 0.0161812 -0.006838175 0.12411752 0.037202522 0.014894983 -0.029953783
-0.0939489 -0.073748715 -0.054684438 -0.111447565 -0.102548644 -0.0330523 -0.064927004 -0.04074092
-0.0029489503 0.07434725 0.010332576 -0.056804724 -0.004426461 -0.029541714 -6.9918395e-05 0.010827957
0.015461939 -0.049672816 -0.03835969 0.0027626264 -0.012187374 -0.06232387 -0.020171594 0.015107718
-0.06664714 -0.001413104 0.09112444 0.0098355925 0.087771356 0.039769035 0.025766987 0.04306725
0.0059308913 0.01811456 0.026464598 0.06417472 0.10608934 0.085983165 0.012078104 0.020846149
0.010388824 -0.012518839 -0.008369083 -0.0024102975 -0.026975771 -0.033834334 0.08730113 0.0017341233
0.007109902 0.06208766 -0.0021280348 -0.014047232 0.065017946 0.07978867 0.040563703 0.041375287
0.028330766 0.0087115755 0.0065777497 -0.0014877635 -0.02870724 -0.035312127 0.0044264575 0.002198782
-0.028449718 0.021341937 0.03378716 0.026347943 0.037521742 0.015819669 0.037419386 0.0067776954
-0.013580365 0.017699314 0.029813113 0.017422704 0.04344792 -0.013108822 -0.0051575107 0.012120519
-0.0055020065 -0.00648968 -0.012307035 -0.069229625 -0.03954508 -0.055381827 -0.13195542 -0.08644402
-0.104532875 0.075832605 0.10435872 0.11628481 0.037746314 0.035531875 0.049518626 -0.075993255
-0.075199254 -0.050431415 0.039508138 -0.0016000994 0.023881484 0.004704838 -0.018903473 0.009964187
0.043455765 -0.015268763 0.042400595 -0.031626135 -0.046037134 0.02357692 -0.086127125 -0.05007129
-0.058972944 -0.086794995 -0.08782485 -0.043106176 0.0025356286 0.014575083 0.014894781 0.008021538
0.0035007317 -0.024784138 -0.08424347 -0.0354512 -0.07571301 0.07183326 0.095457025 0.079310395
0.024569087 0.038641483 0.029151704 -0.014868023 0.013294111 0.0131479595 -0.014955681 -0.013892067
-0.040641837 0.009220703 0.023757443 -0.017717047 0.031963404 0.0037078694 0.02317514 -0.08307991
-0.08490132 -0.081656694 -0.0351332 -0.049504656 -0.020694174 0.00075536367 -0.018409556 0.03044113
-0.0032174874 0.038415223 0.040094864 -0.03948003 -0.0034145906 -0.007287917 -0.09643615 -0.08195209
-0.07928051 0.055497568 0.032071605 0.027086822 0.052727852 0.05990464 0.046276476 0.0025132096
0.008246614 0.04281367 -0.060664896 -0.009071817 -0.060705505 -0.12946208 -0.0636958 -0.15100262
-0.1799344 -0.12745534 -0.1943846 0.0004893028 0.028259262 0.022773392 -0.020861335 -0.0015767781
-0.023629716 0.009393534 0.026721144 0.033152156 0.10443967 0.10838944 0.07569428 0.0063760895

10.bias f4 [64]
00000000: 3370 123d a51e fdbc becd c23b b9f7 593c
00000010: 0b1f 0e3a 5f9a c73b 350e ca3b bfdb f1bc
00000020: a0a6 263d a08c 063d c0e4 e9bc 3ed8 0b3d
00000030: c68e ae3b 0d0d 9fbc 9f7e 2f3c affa b9bb
00000040: 8a88 9d3b 6d36 9f3c 28ac d13c 4434 333d
00000050: 5550 2d3a 1903 143c ca17 6a3c fc04 bf3c
00000060: 4d3e a8bc 6b22 81bc 28f7 323d a452 ce3c
00000070: d164 eb3c e94b 563c d812 8e3c e220 283d
00000080: cc00 303b 6e2b 273d f3c0 ce3c 28c3 ccbc
00000090: ab12 033b a9c5 3b3c 7e97 b0bb 2710 db3c
000000a0: abd9 0bbd 1946 c2bc ed0c 1e3d 7500 f1bc
000000b0: 8ed0 1d3d 1780 da3c fc69 203b 55b3 a63c
000000c0: 7d57 a0ba fe22 80bb 0525 e0b9 6f78 38bc
000000d0: e73c 46bb 7161 883c 4f69 113c 6635 153d
000000e0: 3ed7 223c a943 2c3d d25e 673c 6908 133c
000000f0: 0a03 953c b5fa 883b 699e 0bbd 048c a3bc
0.035751533 -0.030898402 0.0059449365 0.013303691 0.0005421496 0.0060914005 0.0061662444 -0.029523728
0.04068625 0.032848954 -0.02855146 0.03414177 0.0053270785 -0.019415403 0.010711341 -0.0056756358
0.0048075365 0.019435132 0.025594786 0.043751016 0.00066113967 0.009033942 0.014287898 0.023317806
-0.02053752 -0.015763482 0.043692738 0.02518589 0.028734596 0.013079622 0.01734297 0.041046984
0.0026855944 0.040812902 0.02523849 -0.024995402 0.002000014 0.0114607 -0.005389153 0.0267411
-0.03414313 -0.023715066 0.038586546 -0.029419163 0.03852897 0.026672406 0.0024477234 0.020349184
-0.0012233105 -0.0039104214 -0.0004275219 -0.011259182 -0.0030248703 0.016648026 0.008875205 0.036427878
0.009939013 0.042056713 0.014121728 0.008974173 0.018189926 0.004180277 -0.03408662 -0.019964226

11.weight f4 [64]
00000000: 6f66 af3f 97d8 ad3f 730f b93f 311c a33f
00000010: 56d7 af3f 41e8 ae3f 6703 a53f 98f0 ab3f
00000020: d964 ab3f 1b13 ae3f 8f7e ac3f 6a77 a93f
00000030: 2bb9 a93f e269 b83f 23c8 af3f 983e a03f
00000040: 1d6c bb3f 692d af3f 48d5 af3f 5951 ad3f
00000050: fda7 b53f 0763 b03f 9500 a63f 655a af3f
00000060: 1843 ba3f d322 b13f f7b3 af3f 33d1 be3f
00000070: 8f93 bb3f 3d37 a23f 6b3e a83f b22e af3f
00000080: 9414 ab3f dcc7 af3f 2e40 ac3f 2500 bc3f
00000090: 2a63 993f 4564 a03f 3c49 ae3f af2a 9e3f
000000a0: 79ad ac3f 1308 a83f 6eda af3f 3ef3 b03f
000000b0: 3654 a83f 061b b93f 568e a73f 5ceb b53f
000000c0: d18e a13f 54cd b03f 52d1 aa3f c310 b73f
000000d0: cfef b03f 33ed aa3f dcca a83f 1ca5 bb3f
000000e0: 1f21 ab3f 7c1f c03f 16d1 b73f a3e2 b93f
000000f0: 08ee 9b3f 3509 ad3f ec07 b03f 4ed2 ae3f
1.3703135 1.3581723 1.445784 1.2742978 1.373759 1.3664628 1.2891663 1.3432798
1.3390151 1.359958 1.3476123 1.3239567 1.3259634 1.4407313 1.3732952 1.2519102
1.4642369 1.3685733 1.3736963 1.354045 1.4191891 1.3780221 1.2968928 1.3699461
1.4551725 1.3838753 1.3726796 1.4907593 1.4654406 1.2673107 1.3144048 1.3686125
1.3365655 1.3732867 1.3457086 1.4687544 1.1983387 1.25306 1.3616099 1.2356776
1.349044 1.3127464 1.3738534 1.3824232 1.3150699 1.4461372 1.3090312 1.4212451
1.2621709 1.3812661 1.334513 1.430199 1.3823184 1.3353637 1.3186908 1.4659762
1.3369483 1.5009608 1.4360683 1.4522289 1.2182016 1.3518435 1.3752418 1.365793

11.bias f4 [64]
00000000: 8f6a 35be 8214 6bbd 22b9 4cbd 004f 65bd
00000010: c9d8 03be 5717 55be 4a68 b1bd 3438 0bbe
00000020: c300 53be 1b13 72be a4d4 1dbe feec ccbd
00000030: 62b6 66be 72f8 0bbe 2ef0 7ebe 68e6 85bd
00000040: 1c79 7ebe f72f 37be 1306 1abe 46b2 58be
00000050: df08 a3bb da77 c9bd fa1e 2dbe 9f33 4fbe
00000060: 3db7 fcbb a689 92bd 7e00 c2bd 1cb7 01be
00000070: 7325 d7bd 2054 35be 5c68 12be f398 893b
00000080: 2a97 c1bd ecea 2bbe d414 86be a000 aabd
00000090: 043a ccbb 34f4 06bd bf74 28be fa4b 70bd
000000a0: 0927 80be 482d 2bbe 280d d1bd 81ad 5ebe
000000b0: c351 6fbe 3249 7dbd 5592 8abd 6733 4dbe
000000c0: 56aa f0bc 21bf dcbd 23fb 4cbe a352 97ba
000000d0: c3a8 ddbd d246 13be 45d9 d1bd 8b0e 9dbc
000000e0: d437 4ebe e4ce 28be eddd 70be 8ada a1bd
000000f0: 110c 98bd 5a01 cfbd 87bd 37be 2205 82bd
-0.1771643 -0.057392605 -0.049981244 -0.055983543 -0.12875666 -0.20809685 -0.0866247 -0.13595659
-0.2060576 -0.236401 -0.15413147 -0.1000614 -0.22530511 -0.13668993 -0.24896309 -0.06538087
-0.24850887 -0.17889391 -0.1504138 -0.21161756 -0.0049754228 -0.09837313 -0.16906348 -0.20234536
-0.0077122734 -0.071551606 -0.0947275 -0.12667507 -0.1050519 -0.17707872 -0.14297622 0.004199141
-0.094526604 -0.16788834 -0.26187766 -0.083009005 -0.006232502 -0.032947734 -0.16450785 -0.058666207
-0.2502978 -0.16716492 -0.102075875 -0.21745874 -0.23371033 -0.061837383 -0.06766192 -0.2003914
-0.029378098 -0.107786424 -0.20017676 -0.0011545013 -0.10823204 -0.14382485 -0.10246519 -0.019171974
-0.20138484 -0.16485173 -0.23522158 -0.07903011 -0.074241765 -0.1010768 -0.17943393 -0.06348635

11.running_mean f4 [64]
00000000: 67af 72be 8171 10bf a364 3abf eb83 ad3c
00000010: be87 33bf b4f7 3cbe 06bd cabe 4f97 01bf
00000020: 15fb cdbe 3aff 91be 1a5d b9be 1d15 3dbe
00000030: cb84 15bf 3f57 a3be f228 9cbe 56d0 42bd
00000040: f940 09be 97b8 dfbe 67ed b6be 7257 d0bd
00000050: c535 cfbd 22b2 c8be 306c 29bf 7809 63be
00000060: 5ae7 313f d048 1bbf 833a 6abe 23ad 77bd
00000070: 2aa5 95be 4f19 77bd c166 7ebe 44af ee3e
00000080: 127e 2bbf eb5f 55bd f054 f6ba a1d1 fabd
00000090: aaec 053e eab9 41bd 613c c0be 5420 9bbe
000000a0: 95da 44be aa82 c0be 6f46 26be f4ae 9abe
000000b0: c129 d9be ef87 26bf f962 85bf 5a55 8e3c
000000c0: beb5 b7bd bbf0 883c b032 59be 88ef 4cbf
000000d0: 28e9 1cbf c485 82be 3f5c 053f 5ca8 c23e
000000e0: 0dff 45be 8fd6 11be 9b8d d1be a24a 12be
000000f0: 3ab5 e6be c2b2 773d b844 0dbf 43de d3be
-0.23699723 -0.56423193 -0.7280981 0.021181067 -0.70129 -0.18453866 -0.39597338 -0.50621504
-0.40230623 -0.28515035 -0.36203843 -0.18465085 -0.5840575 -0.319025 -0.3049999 -0.047561966
-0.13403691 -0.43695518 -0.35728 -0.10172929 -0.101176776 -0.39198405 -0.66180706 -0.22171581
0.6949364 -0.6065798 -0.22873883 -0.06046785 -0.29227573 -0.06032687 -0.24843885 0.46618092
-0.66989243 -0.052093428 -0.0018793624 -0.12247015 0.13078561 -0.047296442 -0.37546065 -0.30298102
-0.19224007 -0.3759969 -0.16237806 -0.30211604 -0.42414668 -0.6505117 -1.0420829 0.017374683
-0.089702114 0.016716352 -0.21210742 -0.80052996 -0.6129327 -0.2549268 0.5209388 0.38019073
-0.19335575 -0.14242004 -0.4092835 -0.14286283 -0.4506014 0.06047321 -0.5518298 -0.4138051

11.running_var f4 [64]
00000000: 5464 313e edbe 5e3e aa12 703e fef7 fd3d
00000010: 9b04 343e 6d7e 2b3e ab9e 4e3e 6fef 383e
00000020: 8ca9 483e 8816 353e 68e7 5e3e 6ccc 243e
00000030: c6af 683e 7ce8 463e 3340 323e 9763 5d3e
00000040: 1575 333e b1b8 243e 23f6 4e3e d538 4a3e
00000050: 9364 1d3e 1466 183e c825 583e 66b9 223e
00000060: bff1 813e 7ded 563e 7bcc 6a3e 65bf 783e
00000070: 73af 813e 7511 0c3e aaf3 313e b223 373e
00000080: d217 613e 9199 473e 04d1 473e d665 213e
00000090: 8d10 603e 5ff9 723e 938b 3f3e 5856 563e
000000a0: 82c5 233e 9e21 563e 9ec6 4d3e 6a14 2e3e
000000b0: c2e4 3e3e e14b 383e c7d9 603e 266c 483e
000000c0: e68e 473e 6e70 1f3e 55d1 4e3e 0909 453e
000000d0: d3be 643e a9a0 583e 1ead 4b3e 0cb7 683e
000000e0: ff59 213e 0bde 683e 4227 5c3e e613 3c3e
000000f0: d27e 443e 3bd5 443e 05c7 553e f9a0 3f3e
0.17323428 0.2175252 0.2344462 0.124008164 0.17579882 0.16747446 0.20177715 0.18060087
0.19595927 0.17684376 0.21767962 0.16093606 0.22723302 0.19424623 0.17407303 0.21620022
0.17525132 0.16086079 0.20211081 0.19748242 0.15370397 0.1488269 0.21108162 0.15891036
0.2537975 0.20989032 0.22929566 0.24291761 0.2532917 0.13678534 0.17378107 0.1788471
0.21981743 0.19492175 0.19513327 0.15761504 0.21881314 0.2372794 0.18705587 0.20931375
0.15993312 0.20911261 0.20095298 0.16999975 0.18641952 0.17997696 0.21958075 0.19572505
0.19488105 0.15570232 0.20197041 0.19241728 0.22338419 0.21155037 0.19890258 0.22726077
0.15756987 0.22740953 0.2149935 0.18366966 0.19189003 0.19221966 0.20876701 0.1871375

16.weight f4 [32, 64]
00000000: ac46 693d dfd8 01be 49cf 463b b9d7 d33d
00000010: 8f6e 61bd 0891 c9bd e399 8c3d ce3e 4c3d
00000020: cf50 84bd 7fd4 923d 44f7 96bd a109 bfbd
00000030: 55c4 2c3d 2ff2 c83d 2d74 febd 5333 dfbd
00000040: ed8b 2abd 4704 fbbd fc31 913d 6611 babc
00000050: 05b2 e43b 1b25 a23d 386e 4abd e79b 4bbd
00000060: 3b5a be39 7374 b2bd 819f 4a3d c57e 0bbe
00000070: 92e6 ddbc 2c92 9cbd 0869 c93d f415 13be
00000080: cce1 4d3c 0eb5 dfba 4d00 333d 1fb9 abbd
00000090: e919 68bd ab47 223d c425 89bd ebe4 04be
000000a0: 62b0 2dbd 88c1 36bd 27bb 9f3d 99de a5bc
000000b0: e8ce fcbd ad8c 43bc f837 30bd d191 cbbd
000000c0: cdfe 2e3d ccb6 fdbc cbb1 33bc 0075 cabc
000000d0: 1cc9 a0bd 1db5 2fbd 3ff3 13be f1e4 f93d
000000e0: 64c1 ddbd 19d4 9ebd 6aac fcbd dbf1 c83d
000000f0: 0054 3f3d bb0e 3abd 5e6d f0bc fa35 103b
00000100: 08b0 78be 1dd9 093e a1dd 45be 6aab 823e
00000110: bbbd 2ebe b84b 8c3d f433 69be 4b27 31be
00000120: 924c 6c3c d1a2 eebd e257 50bc f828 6fbe
00000130: 6e7b 1ebe 26e0 9fbb 9a61 b4bd 8cbe 67bd
00000140: 7092 cb3e da09 21be 4dd6 c8bd 2474 d83e
00000150: 608d 0c3d 4daa 983e 498e d13c bd55 1e3d
00000160: 35f5 5a3e 675e cfbd cbd1 11bd dc5c 22be
00000170: cdf9 093c 2a94 d7bd c191 223d 9678 b33e
00000180: 23ab 7dbd cd04 953c 33a1 b43e 0256 5c3e
00000190: aecc 193e 508e b63c b23a 863b 18df 603d
000001a0: 494a f83c a2df 43be 5134 153e 4a16 f2bd
000001b0: 0a21 923d d7d1 7dbe 2ee2 66be fff1 573d
000001c0: dfa9 893d d24d 973c 763f b43d 86f1 cb3d
000001d0: f1e2 a6bd 174c 303e 8c19 9e3e f9db b23e
000001e0: 8bd7 d23d 75fd c43c b196 af3e 8dd7 6fbe
000001f0: 3b32 a8bd 65ed 413e f672 ebbd 9ff8 2d3d
00000200: b897 c33d b67d 513e 1a27 163e 2201 433d
00000210: bf5b bbbd daab de3d e3b8 643d f022 adbd
00000220: 46f5 bdbd d498 c1bd 2352 c13d 313b 8dbe
00000230: e76b 943d db77 a6be 30d3 94be 82cb 823d
00000240: ee4a 103e aaeb aabe 766c b1bd 87e4 293e
00000250: cf28 64be dc19 53ba e8c6 983e 6ce5 8abe
00000260: 6aed 6abe 9b0a 1c3e 2e60 803d fb23 5c3d
00000270: f75f 1bbd 6077 1f3e 7356 81bd b9c0 92bd
00000280: cfee 933e 9c18 65be ac6d c73e 8781 01bd
00000290: b183 783e 1058 3b3d 8433 923e ed53 1c3d
000002a0: e097 f13d 8ecf f6bd 063a 4ebe dba3 12be
000002b0: c518 9b3e eac3 a9bd c1c8 163e 507f cbbe
000002c0: da46 0e3e a1d6 a4be 33d7 343e c94d c7bd
000002d0: 1ce7 ef3d 11de 51bd 5c73 4f3e 1cd9 5dbe
000002e0: 104a 6c3e 44f2 323d d4af 893e f566 b73d
000002f0: b704 b83d 2978 f0bc 1b24 7f3e aaa0 84bd
00000300: c136 043c 26b6 aa3a c78a 6dbe a3c6 f0bb
00000310: 9ff4 9cbe b3aa f33b e5f2 6fbe 7870 a6bd
00000320: 341b b23e 2f9d 5e3c 2ca9 353e 61da 01be
00000330: e492 df3d b1c6 0b3e 14ef 693e 0db2 25be
00000340: 2d76 9a3e b800 6a3e 930d 8f3e 45c5 333e
00000350: 55b2 c2bc efb6 3abe 49cf 21bc 0a13 803e
00000360: 82c3 57be b5f9 b4be 2c4e 0abe a2e9 c8bc
00000370: a621 ec3d 2107 67be c85c 8a3d 05b6 abbd
00000380: f608 66be 64ff 113e 4ae7 043e fadb 2f3e
00000390: 94f0 e7bd b963 23be b68f a23e f5dc 7839
000003a0: b51e 913d 96b1 d1bd 636a e43d 4f59 af3e
000003b0: 4010 463e 6bda 543e d407 90be e64f a63d
000003c0: 0273 d4bd 4400 62bd 042c f73d 3f27 1ebe
000003d0: 5aaa 7d3e 9fda 363d 334f cebd 624c f13c
000003e0: a9de 5d3e beaf 633e 8651 6b3e bdd0 2dbe
000003f0: 45b7 6dbe ad7d 34be da32 b63d 5920 65be
0.056952164 -0.12680386 0.0030335954 0.1034388 -0.055037078 -0.09842116 0.06865289 0.049864583
-0.064607255 0.07169437 -0.07371381 -0.093280084 0.042179424 0.09811818 -0.124245025 -0.10898461
-0.04163735 -0.12256675 0.07089612 -0.022713374 0.0069792294 0.079172336 -0.04942152 -0.049709227
0.0003630685 -0.08713617 0.04946852 -0.13622577 -0.027087484 -0.076450676 0.09834486 -0.14363843
0.012566041 -0.0017067508 0.04370146 -0.083849184 -0.056665335 0.03961913 -0.06696656 -0.1297795
-0.04240454 -0.04461816 0.07799368 -0.020247744 -0.12344152 -0.011935395 -0.043022126 -0.09939922
0.042723466 -0.030970953 -0.010967682 -0.024713993 -0.078508586 -0.042897332 -0.1444826 0.1220187
-0.10827902 -0.07755298 -0.12337573 0.09811755 0.046710968 -0.045424204 -0.029349025 0.0022004829
-0.242859 0.13461728 -0.19322826 0.25521404 -0.17064564 0.0685038 -0.22773725 -0.17300145
0.014422553 -0.116521485 -0.012716265 -0.23355472 -0.15476772 -0.0048790155 -0.088076785 -0.056578204
0.3976016 -0.15726414 -0.098065 0.42276108 0.034314513 0.2981743 0.025580542 0.038655985
0.21382602 -0.10125428 -0.035600465 -0.15855736 0.008421374 -0.10526307 0.039689783 0.35052937
-0.061930787 0.018190766 0.35279235 0.21517184 0.15019485 0.022284657 0.0040963525 0.05490026
0.03030886 -0.19128278 0.14570738 -0.118206576 0.07135208 -0.24787079 -0.22547218 0.05272102
0.067218535 0.018469725 0.08801167 0.09958176 -0.081487544 0.17216526 0.30878866 0.3493345
0.10295018 0.024046639 0.34294656 -0.2342207 -0.08212706 0.18938215 -0.114965364 0.04247343
0.095504224 0.20458111 0.14663354 0.047608502 -0.091483586 0.10872622 0.055840384 -0.084539294
-0.09275298 -0.09452978 0.094394945 -0.27584222 0.07247143 -0.32513317 -0.29067373 0.06386472
0.14091083 -0.33382922 -0.086632654 0.16591083 -0.22281192 -0.00080528646 0.29839253 -0.2712816
-0.22942129 0.1523842 0.06268345 0.05374525 -0.037933316 0.15572882 -0.06315317 -0.07165665
0.28893134 -0.22372669 0.3895086 -0.031617668 0.24268986 0.04573828 0.28554928 0.038165975
0.11796546 -0.12051307 -0.20139322 -0.14320318 0.30292335 -0.08289321 0.14725019 -0.3974557
0.13894215 -0.32195 0.17660217 -0.09731633 0.117140025 -0.05123717 0.2025885 -0.21664852
0.23075128 0.043688074 0.2689196 0.08955184 0.08985274 -0.029354172 0.24916117 -0.06475957
0.008069695 0.0013024255 -0.2319747 -0.007347898 -0.3065538 0.0074361204 -0.234325 -0.081269205
0.3478638 0.01358728 0.17740315 -0.12680961 0.10916689 0.13650014 0.22845107 -0.16181202
0.30168286 0.22851837 0.27940044 0.17555721 -0.023766676 -0.18233846 -0.009876081 0.25014526
-0.21070674 -0.3534676 -0.13506383 -0.024525467 0.115298554 -0.22561313 0.06755978 -0.08384327
-0.22464356 0.1425758 0.12978855 0.17173758 -0.113251835 -0.1595601 0.31750268 0.00023733436
0.07085935 -0.1023895 0.11153104 0.34247825 0.19342136 0.20786445 -0.28130972 0.08120708
-0.103734985 -0.055176035 0.12068942 -0.15444659 0.24772015 0.044642087 -0.100737 0.029455367
0.2166697 0.22235009 0.22980317 -0.16974159 -0.23214443 -0.17626067 0.08896418 -0.22375621

16.bias f4 [32]
00000000: 0d0d c73d 62eb a13c 9771 023e 496a a43d
00000010: fa38 55bd a112 81bb e52e ce3d 30cf 5d3d
00000020: 95be 8fbc cfa4 0bbc 26ec ebbd 2aa1 553d
00000030: 72b5 0f3e f9be 473d d538 393e 1097 b03c
00000040: 4978 913d afa2 0c3e d7f8 033e 2b1a fbbc
00000050: 3b98 963d 240c 293e 6ac6 1e3d 4d73 143d
00000060: 1a8e 86bb 0992 f03d 8383 c3bd 75b3 15bd
00000070: b103 373c 0857 4ebd 07c3 9e3d 145c 2b3e
0.09719286 0.01976556 0.12738644 0.08028085 -0.05205629 -0.0039389883 0.10067538 0.054152668
-0.017546931 -0.00852318 -0.11519651 0.05215565 0.1403406 0.04876611 0.18088086 0.021556407
0.07103021 0.13733934 0.12887894 -0.030652126 0.073532544 0.16508538 0.03876344 0.036242772
-0.0041062953 0.11746604 -0.09546568 -0.036548097 0.011170314 -0.05037597 0.07752042 0.16734344
